checkpoint_duel_only_dqn.pth (torch_old, 28809 bytes, 7 tensors)

fc1.weight f4 [64, 37]
000000 bb f9 fd bd b3 32 d2 bd 5c b2 19 3e f2 b2 c4 bc
       -0.12401148 -0.10263576 0.15009445 -0.024011109
000010 cd 6a dc 3d 42 c9 11 be a7 ee 92 3d 64 24 3f 3e
       0.10762558 -0.1423693 0.071744256 0.18666226
000020 9e db 9d bc e9 9b 27 3e 36 75 a8 bc ce 42 95 bd
       -0.01926976 0.16368069 -0.020563703 -0.072881326
000030 4f 03 90 3d 2b 1c 30 bd 22 f9 f7 bb 85 5a 5b 3e
       0.07031881 -0.042995613 -0.0075675407 0.21421249
000040 19 fc 06 be 1f 41 00 be ab 2a 2c 3d 60 82 02 3f
       -0.13182105 -0.12524842 0.04203288 0.50980186
000050 1f c3 04 be 77 29 3c be cd 73 88 bd 26 f0 79 be
       -0.12965058 -0.18375193 -0.06662712 -0.24408016
000060 46 75 c5 bd 54 e0 d3 bd ac 19 82 be 2b d7 7b be
       -0.09641509 -0.103455216 -0.2541021 -0.24593799
000070 4b d9 3a be 97 06 b5 3d 8e 95 1d bc 4e 57 da bc
       -0.18246953 0.088391475 -0.009618176 -0.026652958
000080 d6 96 1a 3e 64 dd 44 3e 5a 0a 62 3e 5a 50 66 3a
       0.15096602 0.19225079 0.22074261 0.0008785777
000090 d3 42 6a 3d 6b ba c6 3d fa 1a 65 bc 2e 18 06 3d
       0.057192635 0.09703525 -0.0139834825 0.032737903
0000a0 71 8f 8d 3d a0 e0 2d 3e bc c0 f6 be 09 b8 14 3c
       0.06912125 0.16980219 -0.4819392 0.0090770805
0000b0 12 43 8a 3e ad 32 d6 3d 55 81 dd bc 62 27 3a 3d
       0.27004296 0.104588844 -0.02703921 0.045447715
0000c0 c6 bf 31 be e6 22 68 3c ee fb aa bd 03 cb 57 be
       -0.17358312 0.014168477 -0.08348833 -0.21073537
0000d0 3c e7 4d be 8a 36 52 bc f0 78 b4 3d b7 60 a4 bb
       -0.2010774 -0.012830386 0.088121295 -0.005016412
0000e0 7e 6d 94 3d 28 6e 0e be f3 e2 67 3e c9 43 09 3e
       0.072474465 -0.13909209 0.22645168 0.13404764
0000f0 27 b3 59 be c2 08 b5 be 59 2f 4d bd 3d 66 cb 3d
       -0.21259747 -0.35358244 -0.050093982 0.0993161
000100 14 e3 22 3e a8 63 02 be 40 4c 0b 3e e4 df 6b be
       0.15906936 -0.12733328 0.13603306 -0.23034626
000110 d3 fa d2 3c 95 68 24 3e 3c 09 fe 3d b2 4d 37 be
       0.025754368 0.1605552 0.12404105 -0.17900732
000120 f8 7e 13 3b e5 12 b1 bb 89 76 a2 bd 17 4f d2 bd
       0.00225061 -0.0054038637 -0.07932765 -0.102689914
000130 a6 0e 05 be ff be 00 3e e0 94 60 3e 4e 2a ec bd
       -0.12993869 0.12572859 0.21931791 -0.115315065
000140 b7 5c 3e bd 59 0a 81 3d d3 da 76 3e 7e c6 2b 3f
       -0.04647514 0.06300802 0.24106912 0.6709975
000150 86 89 6c 3e ab b7 d5 bd 88 8d 6a bd d5 4e d0 3d
       0.23099336 -0.104354225 -0.05726388 0.10171286
000160 2c da 57 be 50 be 19 3d 42 af 1c bd 1a a7 b1 3d
       -0.2107932 0.03753501 -0.038253076 0.0867445
000170 c9 0e 28 3d 1d 1f c3 3d 04 e8 38 3d 5c d3 61 bc
       0.041029725 0.09527419 0.045143142 -0.013783302
000180 d3 86 a0 bb 2c 25 be bd fc 3b 0d 3d fc 1b 67 3c
       -0.004898885 -0.09284434 0.034481034 0.014105793
000190 c7 20 78 3d 2d e8 38 3d 9f 9a 2e bd 85 29 e7 ba
       0.060578134 0.045143295 -0.042627927 -0.0017636275
0001a0 6f 15 38 bd 84 38 ad 3d e6 eb 11 3e 78 bc 38 bd
       -0.044942316 0.08458045 0.14250144 -0.045101613
0001b0 76 24 bb 3d 13 59 85 bc bc 64 84 3d df 93 18 3e
       0.09137814 -0.016277825 0.06464526 0.14900158
0001c0 8c b4 b4 3d da ed 6e be aa dc bc 3d ae 86 0d be
       0.08823499 -0.2333292 0.09221776 -0.13820907
0001d0 5a 0d 5d 3c 79 1e 33 be e3 aa 54 bc 0d 0e 61 3d
       0.013491953 -0.17492093 -0.012980196 0.05494504
0001e0 20 34 9d bd 10 3a c3 3c b8 9d 9e be 55 f1 b1 3d
       -0.07675958 0.023831397 -0.30979705 0.086886086
0001f0 f6 71 05 3e 67 69 46 3e 4a 5a 99 bd c2 de db 3d
       0.13031754 0.19376145 -0.074879244 0.10735847
000200 b3 ce 52 be a1 98 3f be 3b 79 96 bd cb 0c 4a 3c
       -0.20586662 -0.18710567 -0.073473416 0.012332152
000210 7a 4a 5d bd d4 ef ec bd 83 4f 34 bd ef cd d4 3d
       -0.054026105 -0.11569181 -0.04402114 0.10390841
000220 60 36 ad 3d 57 2d be 3d d1 d6 20 be 7d 29 78 be
       0.08457637 0.09285992 -0.15706946 -0.24234577
000230 f6 71 b1 be 98 44 09 3e ad 52 64 3e dd 7c 2a be
       -0.34657258 0.13405073 0.22297163 -0.16649194
000240 6b 1b 4b 3c 41 d8 65 bd 34 ad 51 3e 4f ba 37 bd
       0.012396674 -0.05611444 0.20476228 -0.044855412
000250 82 4b 19 3d d7 b9 ae bd 76 e4 21 be 50 3b 83 3c
       0.037425525 -0.0853154 -0.15809807 0.016019493
000260 61 e6 e1 bd cb 8f e9 3d b7 ad ab be e9 7b 9a be
       -0.110302694 0.114043795 -0.3353097 -0.3017266
000270 70 c4 37 3e e7 f7 e1 3e 5e 89 43 3e 62 de e7 bd
       0.17946029 0.44134447 0.1909537 -0.11321713
000280 66 c6 57 bd 87 d0 17 be 42 d4 96 be 16 2f de bc
       -0.052679442 -0.1482564 -0.29458815 -0.027122062
000290 a4 ef 2f be f2 f8 55 3d 8c 1a 91 3d b8 89 aa bd
       -0.1718126 0.052239366 0.070851415 -0.08327049
0002a0 13 24 04 be 31 94 04 3e 66 1e 11 be ea 0e f7 3d
       -0.12904386 0.12947156 -0.14171752 0.120633915
0002b0 09 ab 05 3e e6 f6 e2 3c 7a a0 96 3b da 30 62 be
       0.13053526 0.027705621 0.004596767 -0.22088948
0002c0 d8 33 83 3c 4d ab 49 3d 99 b2 85 3e 29 60 f1 bc
       0.016015932 0.04923563 0.26112822 -0.029464798
0002d0 d7 78 51 be 72 5c 13 3d d1 0f dd 3e 3a 97 ef 3c
       -0.20456253 0.035976835 0.4317613 0.029246915
0002e0 5c 58 cc bc d7 d6 0c 3e ff 34 10 be c3 19 08 3e
       -0.024944477 0.1375383 -0.14082716 0.13291077
0002f0 ae 33 2e be 55 d0 0e 3e 66 d6 1b 3d 4c 44 a0 bd
       -0.17011902 0.1394666 0.038046263 -0.078255266
000300 31 89 9e bc 08 25 19 be 4b 0d 93 bc 98 17 d7 bd
       -0.019352527 -0.14955533 -0.017950675 -0.10502547
000310 8d c2 be bd 8c 6e a9 3d c8 a9 55 be ac af ab 3c
       -0.09314451 0.08273038 -0.20865548 0.02095779
000320 c5 f9 af bd 1e 1a 82 be b9 8f e2 3d 82 b6 09 3e
       -0.08592562 -0.2541055 0.11062569 0.13448527
000330 7c 2b 38 be 16 91 3d be 6e d4 e7 3d 59 b1 8c bc
       -0.17985338 -0.18512377 0.113198146 -0.01717441
000340 65 49 01 be 52 ce 00 3d 67 d8 2d 3e 7a 1e 3f be
       -0.12625654 0.031446762 0.16977082 -0.1866397
000350 9f 9f 56 be 0c 89 e9 3d fd 8c ec 3d da 9c 06 be
       -0.20959328 0.11403093 0.11550329 -0.13145772
000360 c7 d2 62 3e aa 28 0a 3d 7b 1d 1e be 43 4e 41 3d
       0.22150718 0.033730187 -0.15440933 0.047193777
000370 49 0b 5f 3d 1b a0 9d bc e3 d3 21 be 68 53 bf 3b
       0.05445412 -0.019241383 -0.15803485 0.0058388
000380 2a 79 b6 bc a2 56 64 bd a9 5f 2f 3e 2a 75 35 3d
       -0.022274572 -0.055746682 0.17126335 0.04430119
000390 5d 33 32 3e ec 87 c6 3d b6 1e 1f 3c 66 71 e8 3d
       0.17402406 0.09693894 0.009711912 0.11349754
0003a0 95 2a 4b bb 93 01 03 3e d0 c7 64 3d 00 1d 20 3e
       -0.0031000723 0.1279357 0.05585462 0.15636063
0003b0 0b 8e 3a bd 31 48 1d 3e 41 ef ae bd c6 96 15 bd
       -0.04554562 0.1535957 -0.08541728 -0.036520742
0003c0 4d 23 6c bd b9 99 95 bd 1f 8e 13 3e 7e 2b e4 bd
       -0.057650853 -0.07304711 0.14409684 -0.11141108
0003d0 5f 23 18 bd 97 29 58 be 84 5b c4 be 8b f5 ab be
       -0.037143108 -0.21109615 -0.3835107 -0.33585772
0003e0 1b b2 ad 3d 90 7b bc 3c 5c 17 b1 3b d2 94 db 3d
       0.084812365 0.023008138 0.005404396 0.107217446
0003f0 d0 65 97 bc 24 62 1f 3e 45 75 5a bd ac 7a 04 3d
       -0.018481165 0.15564781 -0.053334493 0.03234355

fc1.bias f4 [64]
000000 da 69 a7 bd 60 82 67 3b e3 d0 a4 bd 88 f6 b9 bd
       -0.081744865 0.0035325512 -0.080476545 -0.09080225
000010 aa 10 a5 bd 58 47 39 3d 34 25 11 bd d2 48 05 bd
       -0.08059819 0.045234054 -0.03543587 -0.03254015
000020 0d 49 7e 3d f9 1f 87 3d 8b 6e 3b be bf b9 e2 3b
       0.062081385 0.06597895 -0.18303888 0.0069191153
000030 33 0a 69 3d 37 65 2d be db 9e 00 be a0 e2 c3 3d
       0.056894492 -0.16933142 -0.12560599 0.0956471
000040 2f 40 52 be d4 e0 5f 3d 9e fd a2 3b 71 95 f2 3d
       -0.20532297 0.054657772 0.004974081 0.1184491
000050 67 c2 16 3d 46 4b a1 bb 19 4b 14 3c 01 01 2a bc
       0.03680649 -0.0049223034 0.009051108 -0.010376216
000060 72 fa 76 bd 03 84 e5 bd b5 bb bb bc b1 42 b0 bc
       -0.060297437 -0.1120682 -0.022916654 -0.021516176
000070 ff 0e 8c bd 42 9d 97 3c 25 a3 17 be 50 d1 91 bd
       -0.06838798 0.018507604 -0.14808328 -0.07120001
000080 a8 b2 a4 bd b6 e0 06 be 5e f5 4c 3e a4 c5 ce bd
       -0.080418885 -0.13171658 0.20015475 -0.10096291
000090 ef 58 bf 3c 1e 9b 87 bd 41 84 d9 3c c7 36 89 bd
       0.023357837 -0.06621383 0.026552321 -0.06699901
0000a0 e4 fe 3d be 33 2b 46 bc d3 d6 08 bd a9 f0 f3 3d
       -0.18554264 -0.01209526 -0.033407997 0.11911137
0000b0 22 c7 0c 3e 17 cc 86 bd 21 06 f4 bd a8 6c 0b bc
       0.13747838 -0.06581896 -0.119152315 -0.008509792
0000c0 af 44 82 3d 62 5b 8a bd 33 cc 8a 3d ee 1f 48 3c
       0.063607566 -0.06755711 0.06777229 0.012214644
0000d0 db ce e3 bd 9d d4 e1 3d b2 2e f5 3d b0 a8 6d ba
       -0.11123439 0.11026881 0.11971797 -0.0009065969
0000e0 05 27 02 bd 86 8e 04 be 24 8d 87 bd 41 e9 4e 3e
       -0.031775493 -0.12944993 -0.06618717 0.20206167
0000f0 79 39 f6 3d ea be 17 3e d0 0a 08 be aa 4c 81 bd
       0.12022681 0.14818922 -0.13285375 -0.06313451

fc2.weight f4 [64, 64]
000000 28 d1 84 bc 3e 4d 71 3e 2a a6 f3 bc 21 47 60 3d
       -0.016213015 0.23564622 -0.02974232 0.054755334
000010 62 fb bf 3d ec b1 09 3d e8 fa cc bb ca 5d 6a bc
       0.09374119 0.033616945 -0.0062554963 -0.014304588
000020 d3 ea 01 bd 61 3d 00 3e d1 39 c4 3c f8 38 80 3d
       -0.031718086 0.12523414 0.02395335 0.06260866
000030 69 5c 07 3e 1f 72 9c 3e 08 ea 4e be 1f 28 08 3d
       0.13218845 0.30555817 -0.20206463 0.033241387
000040 0b f4 57 3d bf e6 c2 bd a6 a5 2b bd 43 e0 c7 3d
       0.052722972 -0.095166676 -0.04190602 0.097595714
000050 8a 99 a1 3e 58 61 d8 bd 6d e8 bf 3c 64 15 c1 be
       0.31562454 -0.10565442 0.023426259 -0.37711632
000060 d0 5e b7 3d 6c 85 72 bb e4 a8 3c bd 31 58 d8 bc
       0.08953631 -0.0037005795 -0.046059504 -0.02640924
000070 e8 80 09 be d0 a8 f8 3d 68 d0 0a 3e 38 41 b0 3d
       -0.1342808 0.121415734 0.13556063 0.086061895
000080 cc f6 9c bb 82 a6 74 3d ce 90 52 be 07 de 2d 3d
       -0.0047901627 0.059729107 -0.20563051 0.04244807
000090 1a 5f ff 3d ed 42 96 bd 54 56 cf 3d ed 14 a5 3c
       0.12469311 -0.07336984 0.10123888 0.02015158
0000a0 53 f4 8e bc 0a 8c f7 3c 95 10 ba bd 94 15 f7 3c
       -0.017450487 0.030218143 -0.09085194 0.030161656
0000b0 85 8c c3 bd 37 31 9e be 55 21 16 3e c9 c4 31 3e
       -0.09548286 -0.30896923 0.14661153 0.17360224
0000c0 33 3c e5 3d 77 2e b2 3d 79 23 b9 3d 0a d2 cf 3b
       0.11193123 0.08700269 0.09039969 0.0063421773
0000d0 01 63 e1 bb 5d d4 8c 3d f1 5b d8 bc 5d 10 dd bd
       -0.0068782573 0.068764426 -0.026411029 -0.10794137
0000e0 3e eb 72 3d 23 bd d3 bd bf 5f 85 be 68 5c b4 be
       0.059306376 -0.10338809 -0.2604961 -0.3522675
0000f0 e2 d5 08 3e 5c be 2b bd 78 d0 95 3d d0 37 37 be
       0.1336284 -0.041929588 0.07315153 -0.17892385
000100 38 21 1d 3e 45 4d 17 3d 66 9d d3 bd f6 11 8b be
       0.15344703 0.036938924 -0.10332756 -0.2716214
000110 8b 0b 40 3e d4 b4 e8 bd 2b 27 ba bd ce d4 8a bc
       0.18754403 -0.11362615 -0.09089502 -0.016947176
000120 ed cf 4b bd 55 55 33 3d eb 9c 9d 3e dd 50 6c bd
       -0.04975884 0.04378255 0.3078378 -0.057694305
000130 49 3c d4 3d f0 46 b4 bd 4c 58 24 bd b6 96 56 3c
       0.10363061 -0.08802593 -0.04012327 0.013097456
000140 47 97 9a 3e 41 c5 4f 3e 85 fd 12 3d d7 84 47 3d
       0.3019354 0.2029009 0.035886306 0.04871067
000150 33 6d c3 bd 35 38 ba bd 43 56 fb 3c ab 8c 90 bd
       -0.095423125 -0.09092752 0.030680781 -0.0705808
000160 f0 16 5b 3d 3c f3 3a be 9f 00 cb 3d 44 78 e9 bc
       0.05348867 -0.18256849 0.09912228 -0.02849973
000170 82 4d a6 3d f7 2b bd 3d 80 6c cd bb 43 6c ec bd
       0.08120252 0.09236901 -0.0062690377 -0.11544087
000180 68 57 d8 3d b8 9b 94 3c f6 ae 8e 3d 0a 0e 44 3d
       0.105635464 0.018140659 0.06966965 0.04786495
000190 dc 8a b3 be 8c da 0f be 68 63 80 3c 03 8c 3d 3e
       -0.3506688 -0.14048213 0.0156724 0.18510441
0001a0 fb 65 16 3e 93 cc 0f be 4d 97 0a be 6a 88 5f 3d
       0.1468734 -0.14042883 -0.13534279 0.054573454
0001b0 b1 e8 6c bd 59 55 ad bd 68 2a 9d bd eb 32 37 3d
       -0.0578391 -0.084635444 -0.07674104 0.044726294
0001c0 e6 27 21 bd ac e8 41 3d e7 3c 8f be 65 ca 22 bd
       -0.03934469 0.047341034 -0.27976152 -0.0397438
0001d0 2d 9c 8a bd 5a 74 a6 3d e1 e7 28 be a8 22 b6 3d
       -0.067680694 0.08127661 -0.16494705 0.08893329
0001e0 3f 2b 03 bd 1b b3 7d 3d 28 5f 78 3d ef a0 2b 3d
       -0.032023665 0.061938386 0.060637623 0.041901525
0001f0 f8 de c0 3d 82 a4 28 3e a3 ee d2 3b b1 ef a7 be
       0.09417528 0.16469005 0.006437139 -0.32800058
000200 39 be 0b be f4 60 0b 3d 57 95 31 be 36 0d fb bc
       -0.13646783 0.03402801 -0.17342125 -0.030645948
000210 5c 8c 28 be 80 62 1f bd 75 3f 07 be 91 07 41 3d
       -0.16459793 -0.038912296 -0.132078 0.047126357
000220 74 cb 3c 3e 28 36 d7 3d 1a be 81 bd 1f bf ba bd
       0.18436986 0.10508376 -0.06335087 -0.09118485
000230 91 34 0b 3e f0 5b 20 3e 55 36 36 bd 33 56 35 be
       0.13594271 0.15660071 -0.04448541 -0.17708664
000240 65 41 0c bd 40 5a e1 bc da e7 96 bd 0f 00 d0 bc
       -0.034242053 -0.027508855 -0.07368441 -0.025390653
000250 6a 3b 8a 3e b7 8d 7f be b9 6f 16 3e a5 3f ba 3d
       0.26998454 -0.24956404 0.14691056 0.090941705
000260 ee a2 5b be f5 75 1c be 57 72 33 3e 5e ac 43 3d
       -0.21448871 -0.15279372 0.17524086 0.047771804
000270 e1 18 ab bd e6 e5 b8 3d ed 75 fd 3d 41 c9 48 be
       -0.08354355 0.09028225 0.12376008 -0.19608022
000280 c5 cb 06 3d 41 76 9f bd 53 e7 93 3d 49 e4 86 bc
       0.032909174 -0.07786227 0.07221856 -0.016466277
000290 4b 26 9a 3c 78 e1 55 bd 93 ba fa bd 79 75 dc 3d
       0.018817088 -0.052216977 -0.122426175 0.10764594
0002a0 e2 6e 51 3d 4f 7d 8a be 95 76 91 3e 64 1e 3c 3d
       0.051131137 -0.27048728 0.28410783 0.04592742
0002b0 4a d0 41 3c 4d c7 39 3e 60 1e 7c ba bf 8c 55 3e
       0.011829445 0.18142433 -0.00096175633 0.20854472
0002c0 e3 4c bb 3c 32 f3 11 3d 30 80 6c 3d 80 ff 85 3d
       0.02286381 0.03563232 0.057739437 0.065428734
0002d0 b3 01 17 3e ce 40 51 3d 25 53 d9 bc 1e 5e 08 3e
       0.14746742 0.051087193 -0.026528904 0.13317153
0002e0 a8 25 8e be 5c 4a 69 3e 24 9c ee 3d 76 cb 55 3e
       -0.27763104 0.22782272 0.11650875 0.20878395
0002f0 99 44 79 be 83 7e cf 3c bf 4a fc 3d 8d 30 04 3d
       -0.24342574 0.02532888 0.12318944 0.032272864
000300 4e a9 f5 bc a1 91 30 bd 81 1f be bd aa fd 88 3c
       -0.029987957 -0.043107633 -0.09283353 0.016722519
000310 b4 a8 95 be 69 0e ce 3d 78 31 a6 bd c5 d8 36 bc
       -0.29230273 0.10061342 -0.08114904 -0.01116008
000320 90 9c 27 3c 28 c0 26 3d 39 42 c5 3d 4b 6c d5 bd
       0.0102301985 0.0407106 0.096317716 -0.10421046
000330 66 5b 04 3d d2 ce 64 3e e5 12 0b 3e 29 3c 81 be
       0.032313727 0.2234452 0.13581426 -0.2524121
000340 46 44 40 be e7 8a 7b be 01 fe 88 be cb 1d dc bb
       -0.18776044 -0.24564706 -0.2675629 -0.006717419
000350 7e 44 1c be 04 6e 1f bf e4 01 b1 bd c0 81 7d 3e
       -0.15260503 -0.62277246 -0.08642939 0.24756527
000360 cc 66 81 be c1 9c f5 bd 28 33 ad 3d 57 89 36 3e
       -0.2527374 -0.11992789 0.08457023 0.17825828
000370 33 e7 57 be f5 75 bf 3d 29 c9 b1 be b2 2c 8c 3d
       -0.21084289 0.093486704 -0.34723786 0.068444625
000380 a5 08 d8 3d 78 86 11 3e ad 45 db 3d 5a ab 1a bd
       0.10548524 0.14211452 0.10706649 -0.03776107
000390 fb 66 bd 3d 36 59 9e 3d 95 e8 d6 bd a8 43 c0 bc
       0.092481576 0.077318594 -0.1049358 -0.023469761
0003a0 a1 80 57 3e df fd fe bc eb 60 22 be 37 19 61 be
       0.21045162 -0.031126915 -0.15857284 -0.21982275
0003b0 97 f4 b8 3d 29 25 ec bd 50 23 d1 3d 76 eb 0d 3d
       0.09031027 -0.11530525 0.102118134 0.03464838
0003c0 67 17 c2 bd 84 9b 5a be 7f d3 0a bd 35 eb 8a bc
       -0.0947712 -0.21348387 -0.033893105 -0.016957859
0003d0 58 1c b2 bd 6e ed 1f 3d 4f cf ea bc d9 51 16 3e
       -0.086968124 0.03904479 -0.028663306 0.1467966
0003e0 92 e2 1d be 51 d8 54 be e2 04 13 3d 16 f9 b8 3d
       -0.15418461 -0.20785643 0.03589333 0.09031884
0003f0 b6 14 eb bd da 8b 9e 3d 68 b1 96 3c 60 9d f1 3d
       -0.1147856 0.07741518 0.01839514 0.11797595

fc2.bias f4 [64]
000000 5d 10 c3 3d 65 5b 0f be b3 77 19 3c b6 26 96 bd
       0.095246054 -0.13999708 0.009366917 -0.07331602
000010 e7 69 f5 bb a4 22 d9 bc 24 7f 9b 3d 0d a5 44 bd
       -0.007489431 -0.026505776 0.075926095 -0.048008967
000020 32 8e fa bd 81 10 0e be 7a 03 91 3d 91 79 78 3d
       -0.12234153 -0.13873483 0.07080741 0.06066281
000030 a7 14 fa bc 14 9c c3 3d d3 0c 25 3c 6a 42 18 be
       -0.030527426 0.09551254 0.010073858 -0.14869085
000040 a3 2d 14 bd 28 8b 44 bd fa e2 5e 3e d7 81 da 3b
       -0.036176335 -0.047984272 0.21766272 0.00666831
000050 c3 67 04 3d f5 c0 c0 3c 76 43 95 3b 57 c0 d6 3d
       0.032325517 0.02352951 0.004555161 0.10485905
000060 83 22 88 3c 23 d6 58 3c 4e 58 31 3d 9d 43 fa bd
       0.016618019 0.013234648 0.043297105 -0.122199275
000070 7b d1 7d bd 04 1d 28 bd 91 d0 86 3e c2 4a 08 3d
       -0.061967354 -0.041043296 0.26331 0.03327442
000080 fa 70 01 bd a4 d1 e2 bd df f7 87 bd 9d 61 23 bd
       -0.031601883 -0.11075142 -0.066390745 -0.039888013
000090 24 c2 5e 3c 0b cc 32 3c d7 4c b3 bc 43 60 11 be
       0.013596091 0.010912905 -0.021887226 -0.14196877
0000a0 4a 4d cb bc 48 d0 2c 3d a9 bf 50 bd 54 0a 12 3e
       -0.024817128 0.04219082 -0.05096403 0.14261752
0000b0 ef 46 6b bd 6d 61 3e 3d 1a 66 20 3e d3 3c 9b bd
       -0.057440694 0.04647963 0.15663949 -0.07579961
0000c0 0a 30 8c 3c 5a d7 a5 3c c6 b3 0f 3e 20 82 ff bc
       0.01711275 0.02024429 0.14033422 -0.031189978
0000d0 0b a1 cd 3c e3 af 37 be 78 1b 43 bd 1d 0d d7 bc
       0.025101205 -0.17938189 -0.047633618 -0.02625137
0000e0 20 b6 08 be 88 33 ef 3d 0a 62 89 3c 44 77 82 3c
       -0.13350725 0.11679751 0.016770381 0.01592601
0000f0 68 e9 63 3e b2 db 0b be 9d 70 b9 bb 3b eb 5a 3d
       0.22257006 -0.13658026 -0.0056591765 0.05344699

fc3.weight f4 [4, 64]
000000 68 79 c6 bd a9 a9 9b bd 0e 2c 81 be 58 f0 d6 3d
       -0.09691125 -0.076007195 -0.25228924 0.10495061
000010 34 eb 30 bd ea ce 52 bd a3 96 14 3d 81 fa 2a 3e
       -0.043193057 -0.05146686 0.03627647 0.16697122
000020 f8 d3 f1 bd f6 24 62 bc c0 fb 48 3d d4 61 00 3e
       -0.11808008 -0.0138027575 0.049068213 0.12537318
000030 d9 94 a8 3d 6f 99 cc 3b dd 5d 3c be ce 95 f2 be
       0.082315154 0.0062438766 -0.18395181 -0.47379917
000040 a4 97 73 bd b7 f7 00 3d 50 94 17 3e d3 6b ff 3d
       -0.059470788 0.03148624 0.1480267 0.12471738
000050 88 59 09 3e 96 d4 3f bc e7 c3 e3 bd a1 3e 17 bd
       0.1341306 -0.011708399 -0.1112135 -0.036924962
000060 11 8d d6 bc fa b8 56 3e 2a e8 b4 bd 44 05 d8 bd
       -0.026190313 0.20969 -0.08833344 -0.10547879
000070 61 ff b0 3e ac 9a 29 3e 90 70 fb 3d e0 db 6a bd
       0.3456984 0.16562909 0.12277329 -0.057338595
000080 98 54 51 3e eb 95 e9 3d 0c 92 04 3d 3b 79 81 3e
       0.20442426 0.11405548 0.032365844 0.25287804
000090 f2 82 8d 3d 2e c9 a7 bd a9 a4 da bb a4 15 42 be
       0.069097415 -0.08192669 -0.006672461 -0.18953568
0000a0 3a 3c 00 3e 1a 69 d3 bd b1 bb 20 bf d8 e5 d3 3c
       0.12522975 -0.10322781 -0.62786394 0.025866434
0000b0 91 85 68 3e a5 72 6e bd 5c 64 ee 3d b6 88 25 bd
       0.22707202 -0.058214802 0.11640236 -0.04041358
0000c0 42 1a 01 3d ff 7e 72 bd 52 48 94 3e eb 2d 92 3d
       0.031519182 -0.059203144 0.28961426 0.071376644
0000d0 4a 50 22 3e bf 48 50 3d 95 e4 a8 3e 8d 26 67 3d
       0.1585094 0.050850626 0.32986894 0.05643325
0000e0 db 84 65 be 17 78 5b 3d 95 97 df bc 75 61 b8 bd
       -0.22413962 0.053581323 -0.02729396 -0.090029635
0000f0 4f ef c2 3d d2 3e c6 3d 57 cc e3 bd 63 58 90 3e
       0.09518301 0.09679951 -0.11122959 0.28192434
000100 d4 49 77 3d 79 cc b7 bc 57 bb eb 3d 64 40 17 be
       0.060373142 -0.022436367 0.115103416 -0.14770657
000110 ed 2e 7d bd e0 f9 05 3d 3b 2b 27 be 58 28 c0 be
       -0.06181233 0.032709002 -0.16325085 -0.3753078
000120 c9 90 2b 3d af fa cc bd 5e e3 35 3d 7d 9a 4f 3d
       0.041886125 -0.100087516 0.044406287 0.05068444
000130 c6 d1 ec 3e 61 a5 72 3d 1f 73 b3 be 09 91 19 be
       0.46253794 0.05923975 -0.35048768 -0.14996733
000140 13 0a d1 3d 5b 52 5d 3e 74 90 82 3d 78 23 3f 3e
       0.10207 0.21613447 0.063752085 0.18665874
000150 1b c7 1f 3d cb a8 56 be f5 67 cf 3c f2 04 d3 3d
       0.03900824 -0.20962827 0.025318125 0.103036776
000160 ed 65 80 bd 90 72 2d 3e 60 ba 09 bf e6 3f 38 3e
       -0.06269441 0.16938233 -0.5380001 0.17993125
000170 b9 4e 4e be fb a7 45 3d 4b 6c e4 3d 1c 03 76 3e
       -0.20147218 0.0482559 0.11153468 0.24024624
000180 58 94 a0 3d 8b a6 e3 bd 44 27 a8 3e 53 1a 88 be
       0.07840794 -0.1111575 0.32842457 -0.26582584
000190 1a 30 9a 3d 5f 90 e5 3b b2 d1 41 3e f5 21 30 3d
       0.07528706 0.0070057358 0.18927649 0.043001134
0001a0 ca a3 03 3c c4 16 b2 3d dc ea 01 3e 5e 8f 94 3d
       0.008034656 0.086957484 0.12687248 0.072539076
0001b0 06 a6 36 3e 89 f8 87 be 6b f5 79 3d ef 65 2d be
       0.1783677 -0.26556805 0.061025064 -0.16933416
0001c0 b6 8f f2 3d f0 69 8c 3d a1 a6 7b 3d 71 7e 76 3d
       0.11843817 0.068561435 0.061438207 0.060179178
0001d0 b8 84 0b 3d 67 ca 2a be a8 b1 8c 3c 5f 0b 6b bc
       0.034062117 -0.16678773 0.017174557 -0.014345973
0001e0 1a 05 a0 bd 01 06 10 3e 96 f2 35 3e e2 fd 2e 3d
       -0.07813473 0.1406479 0.1776832 0.04272259
0001f0 dc 65 4a 3d cc d9 69 be 19 5e b4 3d 7d 7f 78 3d
       0.049413547 -0.22836989 0.0880701 0.060668457
000200 7c c6 48 bd 38 66 5c 3e 91 e8 8d 3e a0 e8 6f be
       -0.049017414 0.21523368 0.27716497 -0.23428583
000210 94 9b 83 3e b2 3b 30 3e ba 63 65 3e 50 0c a1 bc
       0.25704634 0.17210272 0.22401324 -0.019659191
000220 65 ce 5d be 25 50 57 3d 09 cc dc 3d 92 61 12 bc
       -0.21660765 0.052566666 0.10781104 -0.008934395
000230 1c e5 c5 3d 37 ce 41 3e c2 83 b9 3e 0f 79 60 be
       0.0966284 0.18926321 0.36233336 -0.2192118
000240 5e 8d 5a 3d 84 aa 5a bb 5e 39 10 bd 1b 9a 83 be
       0.053357475 -0.0033365795 -0.03521096 -0.2570351
000250 ac f0 b7 bc 36 55 1b 3d 3b 78 0d be 5e b3 a8 3c
       -0.022453628 0.03792306 -0.13815396 0.020593341
000260 df bb c0 3d 5e bd 37 3e 60 49 7e 3e 39 c4 a9 3e
       0.094108336 0.17943332 0.24832678 0.33157519
000270 1d 18 8f 3e a7 e9 93 3c 5a f7 59 3c 8b b5 c4 3d
       0.27948084 0.01805575 0.013303602 0.09604939
000280 c3 79 45 be d2 eb f1 bd 22 1c 8a be 81 83 bd 3e
       -0.1928473 -0.11812557 -0.2697459 0.37014392
000290 58 de d0 3d 77 33 62 3d c5 2d d3 3e 45 0d a2 bd
       0.10198659 0.055224862 0.41245857 -0.07912687
0002a0 de 6c 23 3e d1 10 05 be 84 5a 17 be 62 ff 09 3c
       0.15959498 -0.12994696 -0.14780623 0.008422704
0002b0 f7 2f 64 bb 52 92 53 bb be 44 6d 3d 58 a2 5d bd
       -0.0034818628 -0.0032283259 0.057926886 -0.0541099
0002c0 7c a9 52 bd be 0b ec 3d a1 c2 a3 3d 58 be c7 3e
       -0.051431164 0.11525677 0.07996107 0.39012408
0002d0 a7 ef ca 3d 9b 1e e5 3c 31 e2 b5 bc d8 d3 09 3d
       0.09908991 0.027968695 -0.022202583 0.033649296
0002e0 af cc a1 bd 0a 83 e3 3c 9b 4b b4 3c 96 2e 1b 3e
       -0.079003684 0.027772445 0.022008708 0.1515449
0002f0 50 f6 c4 3d 2d bb 93 be 45 0f dd bd 3c f0 4c bd
       0.09617293 -0.2885374 -0.10793928 -0.050033793
000300 c9 9e 4a 3e 75 c1 32 be 21 ff 18 be 23 af e8 3d
       0.19787134 -0.1745661 -0.14941074 0.1136153
000310 df 00 54 be 4c e2 46 3e 54 5a 43 3d e8 82 8a 3e
       -0.20703457 0.19422263 0.047693565 0.27053
000320 98 12 3d be 48 4a 5e be 43 26 74 3c eb cc 23 3e
       -0.18464124 -0.21708024 0.0149017 0.15996139
000330 6f 0f 87 be c9 6f 6f bd 23 2a 90 3e ed a1 b9 3e
       -0.26378962 -0.058456216 0.28157148 0.36256352
000340 08 93 bd be 9e a7 1e bd 97 25 12 3e 8c 58 74 bd
       -0.37026238 -0.03873407 0.14272152 -0.059654757
000350 45 9d 72 3d e1 80 a8 3d 98 a6 d9 3d 6d 57 ed 3d
       0.059232015 0.08227707 0.10627478 0.11588941
000360 c0 6e 98 be 56 74 06 be aa 7f 6c 3e 56 f7 01 be
       -0.29771996 -0.13130316 0.23095575 -0.12692007
000370 f2 f0 c9 be 59 74 a7 3d 2d 33 71 bd d8 1e 9a 3e
       -0.3944164 0.081764884 -0.058886696 0.30101657
000380 70 a6 b6 3d 42 c8 80 bd d6 5d bf 3e a3 ae a5 bd
       0.08918464 -0.06288196 0.3737628 -0.0808995
000390 3d b2 27 3d 39 23 21 3e 77 de 57 be 0c 65 93 3d
       0.040941466 0.15736093 -0.21080957 0.071970075
0003a0 fd 5f 4b 3e 80 20 ae 3e 2e 4d 67 bc 60 27 a6 3d
       0.19860835 0.3400917 -0.014117522 0.08112979
0003b0 d7 65 34 3e 2e 0d 78 be cc 9e 64 3d 1b 91 1e 3e
       0.17616974 -0.24223778 0.055815503 0.15485041
0003c0 75 d5 e5 3c 6f 88 8e 3d 8f e6 0b bd db ff ee 3d
       0.028055886 0.069596164 -0.034155425 0.11669894
0003d0 d4 3f 1b 3e c3 3e 62 be 6e 0d 0e bf 09 4c 9b 3d
       0.15161067 -0.22094254 -0.5548924 0.07582862
0003e0 6b 3e b4 3d b6 06 7e 3d e8 fc 98 3e 2d f9 07 3e
       0.08800968 0.06201812 0.29880452 0.13278647
0003f0 72 97 be 3d b9 10 70 bc 62 90 c6 bd 8e 84 58 be
       0.0930623 -0.0146524245 -0.096955076 -0.21144316

fc3.bias f4 [4]
000000 c0 29 2b 3e 73 ca 0c 3e a6 3c 3f 3e fc 62 48 3e
       0.16715145 0.13749103 0.1867548 0.1956901

a_state.weight f4 [1, 64]
000000 e5 36 bb bc 8b ca 5a 3b 2f e2 f9 bd 75 99 8e bd
       -0.022853324 0.0033384885 -0.12201344 -0.06962863
000010 ce 51 4f 3a 59 99 6b 3e 2a ff 1c 3e 97 bc ec bd
       0.0007908613 0.23007716 0.15331712 -0.11559408
000020 1e b1 7c be 22 ad b7 bd 3b 1d 9a 3d 67 8f 0e 3e
       -0.2467694 -0.08968569 0.075251065 0.13921891
000030 31 a3 14 3e 67 60 ca 3c cb 74 22 be 3d a1 ca be
       0.14515378 0.024704171 -0.15864865 -0.3957614
000040 84 55 fc bd a5 67 9f 3d 8b 22 fc 3c 33 f8 82 bd
       -0.12320998 0.077834405 0.03077819 -0.063949965
000050 cc eb 70 3c 9b e3 d9 bc 52 cf bc bd 99 f1 d8 3d
       0.014704656 -0.026597789 -0.09219231 0.10592956
000060 b1 e7 a1 bd f5 65 0b 3e 81 0d 10 bf 46 5e c3 3e
       -0.0790552 0.13613112 -0.56270605 0.38157862
000070 a1 4f 85 be 7a 2f d5 3d 3b ee f2 3d 40 4c 0f 3f
       -0.26037315 0.10409446 0.11861845 0.55975723
000080 e2 e2 37 3e 70 3b 3a be 86 ac 9f 3e da e6 92 be
       0.17957643 -0.18186736 0.31186312 -0.2869175
000090 f6 49 32 3e 49 f8 1f 3d 2b da 48 3e 2b a7 05 be
       0.17411026 0.039055143 0.19614474 -0.13052051
0000a0 62 6a b2 3d 60 25 c7 3d 30 0c 9b be 86 0a 23 3e
       0.08711697 0.097239256 -0.30282736 0.15921983
0000b0 f4 0e fb 3d fb 68 9b be 2c 0e 01 3e d8 56 ff bd
       0.122587115 -0.3035353 0.12603062 -0.12467736
0000c0 6f 4c 00 3e cd cb 3e 3d 87 77 34 3e 90 51 12 3e
       0.12529157 0.04658108 0.17623721 0.14288926
0000d0 76 1f f0 3d 95 5e 21 be 29 94 a9 be 2f bc 97 3d
       0.11724751 -0.15758736 -0.3312085 0.0740894
0000e0 b9 14 93 be 77 8d f1 3d c4 e3 c7 3d e4 b5 d9 3d
       -0.28726748 0.117945604 0.0976024 0.10630396
0000f0 26 05 25 3e b9 73 b7 be f4 1b b5 bd 6b 99 0d 3e
       0.16115245 -0.35830477 -0.08843222 0.13828056
