checkpoint.pth (torch_old, 28809 bytes, 7 tensors)

fc1.weight f4 [64, 37]
-0.093585186 -0.18349838 0.007933043 0.008257955 0.042776566 -0.04392682 0.11154799 -0.021268187
-0.08111273 0.042898793 -0.088965334 -0.09792691 0.026348373 0.0822506 0.11861729 0.058068953
-0.062459823 -0.072869994 0.017490828 -0.0008920778 -0.2240859 -0.18504353 -0.12931192 -0.0023582496
0.32625142 -0.18431689 -0.3356871 -0.36133346 0.08161573 0.5677348 0.035228577 0.099750385
0.076016694 -0.018248 0.012251748 0.04187924 0.0829057 -0.0038527073 0.10569094 0.117034376
0.16142584 0.25301197 -0.03671046 -0.10936629 0.092461534 0.052277446 -0.0025181568 0.055274583
-0.25846353 0.04141932 0.004156843 -0.056346897 -0.1893566 0.18115847 -0.11572405 0.06852932
0.18073715 0.06675084 0.20530555 0.054007925 -0.22202897 -0.1825133 -0.047895677 0.182753
-0.03755467 0.13149577 0.02743628 -0.030115554 -0.11418078 0.14366932 0.0494235 -0.20754401
-0.024112048 0.006733303 -0.119374126 -0.044055708 -0.20651613 0.08172923 0.11010393 -0.16618085
-0.23761804 0.080321215 0.36119044 0.45348516 0.12143252 -0.11810795 0.035188615 -0.02113331
-0.07987148 -0.05427225 -0.18580918 0.07937593 0.09168867 0.115582734 0.0377027 -0.10340031
-0.051246256 -0.060949154 0.06461767 -0.04297524 0.10044199 -0.09584647 0.052008368 0.20453031
-0.027158812 -0.111380644 0.07904739 -0.055285968 0.21789408 0.06889364 0.019186841 0.023860432
0.30452478 -0.277811 -0.011667116 -0.11422949 0.019943947 -0.011113434 -0.055384237 -0.025575427
0.12650463 -0.12506346 -0.14260897 0.027898602 0.18374498 -0.07556517 -0.072686315 -0.13189942
-0.102708966 0.008358482 -0.020781208 -0.11845635 -0.034663312 0.011872763 -0.09055366 -0.18774061
0.22398497 -0.034443703 -0.25084955 -0.1858612 -0.29892892 0.065086484 0.11402555 -0.113766134
0.034733545 -0.062756866 0.19335705 -0.08650381 -0.026709402 -0.025626907 0.02461191 -0.2780336
-0.11824596 -0.5014362 0.013449496 0.06975845 0.09873939 0.16072835 -0.0012915278 -0.0011875223
0.023420451 -0.118706144 -0.0038164053 0.06800335 -0.3829419 0.10825125 -0.19276175 -0.46923858
-0.11744674 0.03101073 0.10747715 -0.032609385 -0.02899069 -0.23211826 0.23637836 -0.12795483
0.07347989 -0.040246606 0.041357774 0.14202505 -0.034902237 0.010294052 0.2531836 0.08388402
0.0023310934 0.020275619 0.11539297 0.06582642 -0.0488536 -0.013377414 0.17482768 0.0071922583
-0.26479006 -0.1908109 -0.043035258 -0.04150323 -0.06802798 0.06624241 -0.056260023 0.008841779
-0.101437084 -0.055907752 0.03557672 0.15361711 0.13712566 -0.12224847 0.12466283 -0.053116623
-0.049889367 0.20392115 0.1276592 -0.080048434 -0.0647571 -0.08715922 0.13299596 0.06277239
0.10866096 -0.0047923494 -0.15375006 0.08166448 -0.026511028 0.022076381 -0.12372107 0.011964372
-0.008930419 0.035452396 0.24901932 0.33580676 0.12956285 -0.019646196 -0.17464478 -0.5945233
0.080018625 0.1031276 0.045020238 0.25417152 0.13645539 0.1129612 -0.019310778 0.006498374
0.08053369 0.18989865 0.09177333 -0.018005019 0.043935806 0.11923301 0.13022657 -0.110754296
-0.060072485 -0.014626124 0.0039934088 0.14972688 0.21778263 0.074803494 -0.10724051 -0.095753595
00000000: 97a9 bfbd 00e7 3bbe 98f9 013c 604c 073c
00000010: 7b36 2f3d 9cec 33bd 4673 e43d 9f3a aebc
00000020: 6e1e a6bd a5b6 2f3d 7533 b6bd e78d c8bd
00000030: 8bd8 d73c 0173 a83d 9fed f23d b6d9 6d3d
00000040: dfd5 7fbd dd3c 95bd ed48 8f3c 54da 69ba
00000050: c676 65be 0d7c 3dbe 586a 04be dd8c 1abb
00000060: 6d0a a73e 91bd 3cbe 2edf abbe b300 b9be
00000070: 2626 a73d 1157 113f d74b 103d ee49 cc3d
00000080: a4ae 9b3d d47c 95bc 8ebb 483c 9189 2b3d
00000090: 77ca a93d b47d 7cbb 7e74 d83d b8af ef3d
000000a0: d14c 253e c98a 813e b55d 16bd 6ffb dfbd
000000b0: 795c bd3d e020 563d a907 25bb 9a67 623d
000000c0: 5555 84be 4ea7 293d 2036 883b 01cc 66bd
000000d0: b2e6 41be 9b81 393e bb00 edbd 1a59 8c3d
000000e0: 2913 393e aab4 883d 9e3b 523e 6a37 5d3d
000000f0: 905b 63be c4e4 3abe 422e 44bd 9a23 3b3e
00000100: edd2 19bd d4a6 063e 0dc2 e03c e5b4 f6bc
00000110: 9dd7 e9bd 0d1e 133e 4c70 4a3d 6b86 54be
00000120: a186 c5bc 0aa3 dc3b 6c7a f4bd c273 34bd
00000130: f778 53be a861 a73d 2b7e e13d 502b 2abe
00000140: 2552 73be 737f a43d f4ed b83e 352f e83e
00000150: 9db1 f83d 95e2 f1bd f021 103d c31f adbc
00000160: a993 a3bd 944c 5ebd c344 3ebe d98f a23d
00000170: 45c7 bb3d a4b6 ec3d 256e 1a3d 8bc3 d3bd
00000180: 98e7 51bd d2a5 79bd 4556 843d ce06 30bd
00000190: 88b4 cd3d 274b c4bd ba06 553d 6570 513e
000001a0: 287c debc 891b e4bd 99e3 a13d 8a73 62bd
000001b0: a01f 5f3e 1c18 8d3d b92d 9d3c f476 c33c
000001c0: acea 9b3e 3e3d 8ebe 6e27 3fbc 27f1 e9bd
000001d0: 7d61 a33c 1f15 36bc 95da 62bd 8f83 d1bc
000001e0: 6e8a 013e a310 00be 1608 12be 9c8b e43c
000001f0: a527 3c3e e9c1 9abd 90dc 94bd a410 07be
00000200: 1459 d2bd 04f2 083c 5a3d aabc 3e99 f2bd
00000210: 1efb 0dbd fa85 423c 3374 b9bd 133f 40be
00000220: 515c 653e d714 0dbd 5a6f 80be 6652 3ebe
00000230: 360d 99be 104c 853d 3a86 e93d 38fe e8bd
00000240: c344 0e3d ac86 80bd 64ff 453e e928 b1bd
00000250: adcd dabc 85ef d1bc eb9e c93c 6c5a 8ebe
00000260: f02a f2bd 1f5e 00bf 465b 5c3c 85dd 8e3d
00000270: e137 ca3d f995 243e 7b48 a9ba a3a6 9bba
00000280: 3fdc bf3c 351c f3bd a81c 7abb 5745 8b3d
00000290: f610 c4be d5b2 dd3d 5663 45be 0a40 f0be
000002a0: eb87 f0bd 370a fe3c fb1c dc3d 6b91 05bd
000002b0: e27d edbc 69b0 6dbe 2b0d 723e 9706 03be
000002c0: a07c 963d a0d9 24bd c566 293d 046f 113e
000002d0: a6f5 0ebd 62a8 283c 48a1 813e 63cb ab3d
000002e0: 42c5 183b 0e19 a63c 2653 ec3d 01d0 863d
000002f0: b61a 48bd f12c 5bbc 0706 333e 09ad eb3b
00000300: 9092 87be ef63 43be bd45 30bd 4aff 29bd
00000310: 4152 8bbd 1aaa 873d e970 66bd 1cdd 103c
00000320: 3fbe cfbd 87ff 64bd e5b8 113d ce4d 1d3e
00000330: ab6a 0c3e 685d fabd 3a4f ff3d d190 59bd
00000340: cb58 4cbd b5d0 503e 18b9 023e 6ff0 a3bd
00000350: 5f9f 84bd 8880 b2bd 1830 083e d08e 803d
00000360: a389 de3d 2409 9dbb a870 1dbe b53f a73d
00000370: a82d d9bc 87d9 b43c 7961 fdbd 3706 443c
00000380: e450 12bc 8836 113d ecfe 7e3e ddee ab3e
00000390: 20ac 043e 0ff1 a0bc 15d6 32be ae32 18bf
000003a0: cee0 a33d 9034 d33d 2467 383d c522 823e
000003b0: f6ba 0b3e 3458 e73d a331 9ebc 50f0 d43b
000003c0: d9ee a43d cb74 423e a8f3 bb3d 437f 93bc
000003d0: 08f6 333d 7030 f43d 1d5a 053e 26d3 e2bd
000003e0: 910e 76bd 69a2 6fbc 24db 823b 0152 193e
000003f0: 6902 5f3e 9332 993d eaa0 dbbd 761a c4bd

fc1.bias f4 [64]
-0.14228708 0.042431045 -0.11257248 -0.09616371 -0.08526768 0.08832895 0.029729843 0.008370636
0.07601418 0.118031494 -0.18367441 0.022157416 0.21560684 -0.107629314 -0.08843425 0.11305422
-0.15182205 0.062690265 -0.05999535 0.05545825 0.03567298 0.10538195 -0.0149792675 -0.16431272
-0.015344916 -0.17006199 -0.035866708 -0.046065208 -0.16274045 0.061645277 -0.15118249 -0.024109539
-0.087283075 -0.10569947 0.17235021 -0.07593571 0.074010596 -0.015450409 -0.017723009 -0.08177908
-0.15992789 -0.006435635 -0.110926464 0.12894534 0.1422452 0.057592705 -0.18224102 0.115457185
0.07587323 -0.045631163 0.09124839 -0.048524734 -0.087182075 0.13930619 0.04326652 0.04326027
-0.005808915 -0.20786153 0.014152113 -0.025061106 0.113894165 0.19295208 -0.112296924 0.044957425
00000000: b4b3 11be 2dcc 2d3d 678c e6bd 7bf1 c4bd
00000010: d2a0 aebd cfe5 b43d 008c f33c fe24 093c
00000020: 53ad 9b3d 7fba f13d 2515 3cbe 7883 b53c
00000030: 0ac8 5c3e c26c dcbd 041d b5bd f988 e73d
00000040: 3d77 1bbe c163 803d afbd 75bd 3128 633d
00000050: d51d 123d 7ed2 d73d 9a6b 75bc 9841 28be
00000060: 3e69 7bbc bb24 2ebe f8e8 12bd dfae 3cbd
00000070: 6fa5 26be c27f 7c3d 95cf 1abe 5e81 c5bc
00000080: 78c1 b2bd f778 d8bd 937c 303e 2e84 9bbd
00000090: de92 973d b623 7dbc d82f 91bc ca7b a7bd
000000a0: 23c4 23be 05e2 d2bb 6a2d e3bd 3f0a 043e
000000b0: baa8 113e 54e6 6b3d 649d 3abe d174 ec3d
000000c0: 6d63 9b3d bee7 3abd 70e0 ba3d dfc1 46bd
000000d0: 848c b2bd 48a6 0e3e 3c38 313d ae31 313d
000000e0: b658 bebb a7d9 54be 44de 673c f34c cdbc
000000f0: 5841 e93d 3b95 453e eefb e5bd 4725 383d

fc2.weight f4 [64, 64]
-0.05561108 0.19283944 -0.11780772 0.11118131 -0.010506825 0.04105978 0.0018223453 -0.0789797
0.019646095 0.12373185 -0.06207948 0.09271978 -0.083446346 0.022540037 -0.029071897 0.053449165
0.09261517 -0.026067208 -0.06726434 -0.13892932 0.05456858 -0.08973198 -0.1435896 0.032339305
-0.043352038 -0.075821586 0.22615305 -0.03729981 -0.13042419 0.031058207 0.08846182 0.20236354
0.02165232 -0.05851295 -0.073215924 0.1501939 0.1541983 -0.14901386 -0.0074661085 -0.022608086
0.015651623 -0.043066584 0.12952489 0.11190366 -0.09799732 0.16641569 0.24123195 0.19475985
0.013149787 0.3406466 0.19210576 0.05413299 0.0009924236 0.06404372 0.071404114 -0.029625257
0.037667207 0.05199248 -0.22927655 0.014049521 0.08972785 -0.06787487 0.005708433 -0.19164954
0.14013307 -0.119624645 -0.31517786 0.093507424 -0.06479071 0.044269342 0.012077392 0.15607622
-0.26040396 0.20750612 -0.12896673 -0.04915847 0.17368999 0.110649675 0.027952187 0.11736153
-0.05913175 0.01777379 -0.17769209 0.27283993 -0.122024596 -0.034558136 -0.05676321 -0.29497194
0.048413128 0.17052059 0.08939901 -0.06257465 -0.013505397 0.17024975 -0.20274857 -0.014444732
0.062314693 0.0015313353 0.060083695 0.0070576863 -0.015437483 -0.46665204 -0.08304947 -0.07173521
0.14225811 0.014961626 0.02850375 0.115441374 -0.21446432 -0.26873356 0.0934898 -0.3393242
-0.015864901 -0.18006654 0.033717077 0.014314256 0.10061106 0.03851562 -0.102987476 -0.089201055
-0.3229714 0.011812061 -0.21603137 -0.11670348 0.02003636 0.057086006 0.08623326 -0.24848098
-0.1929478 -0.019639062 -0.112876356 -0.3185262 0.14288032 -0.27133942 -0.0391595 0.0790874
0.13297598 0.006758078 -0.17296419 0.049438123 0.061214693 -0.060639985 0.15150262 -0.1511335
-0.1465132 -0.16719654 -0.32139987 -0.252476 0.25149733 -0.22973001 0.0764567 -0.21594372
-0.11665731 -0.02398703 0.12746133 0.1711501 0.16908082 0.29389805 0.037020087 0.03314898
0.016036594 -0.03180709 -0.067291245 0.06965305 -0.17031176 0.080810025 -0.120832644 -0.0828221
-0.22198522 -0.13365579 0.10087712 0.042127315 -0.13077746 0.18566786 -0.08837955 0.2716888
0.042703018 0.227344 -0.114175454 0.13884328 0.13688964 -0.065795824 -0.08063915 0.07197765
-0.20448972 -0.12650385 -0.040204674 -0.2224123 -0.2551984 -0.09511906 -0.3763713 -0.03893039
-0.109053545 -0.0693267 -0.0817742 -0.040238075 0.029757848 -0.16872478 -0.17220424 -0.06454498
-0.059894137 0.29315487 0.30647308 -0.12347992 0.21408632 0.0021688584 0.2620899 -0.39422253
-0.007645749 -0.24418405 -0.14926688 -0.027949993 -0.028546166 -0.22297412 -0.0017832199 0.09920242
0.11182627 -0.23740762 0.019422246 0.2069917 -0.13210127 0.1635138 -0.394975 0.305423
0.0423948 0.1869677 0.080907896 0.09999612 0.013547586 0.112915546 -0.027966812 0.19961256
0.19303294 -0.072800785 0.03203345 -0.12409765 0.1172439 -0.079053484 -0.26179627 0.1390993
0.12864295 -0.028714342 -0.2307972 0.087071076 -0.13961685 -0.00933074 -0.14779465 0.23902644
-0.3411894 -0.6487549 0.041324597 0.22229226 -0.087003864 0.025859553 -0.008147394 0.010936085
00000000: 72c8 63bd b477 453e 2d45 f1bd 07b3 e33d
00000010: d124 2cbc 4d2e 283d c3db ee3a 1cc0 a1bd
00000020: d9f0 a03c 2067 fd3d 0e47 7ebd dee3 bd3d
00000030: ebe5 aabd e2a5 b83c 3028 eebc 83ed 5a3d
00000040: 06ad bd3d e68a d5bc e3c1 89bd 7d43 0ebe
00000050: 4e83 5f3d 66c5 b7bd 2709 13be 3876 043d
00000060: e891 31bd 5948 9bbd aa94 673e b0c7 18bd
00000070: eb8d 05be c86d fe3c 782b b53d 6338 4f3e
00000080: 3560 b13c 46ab 6fbd 3bf2 95bd 6ecc 193e
00000090: 29e6 1d3e 1797 18be 42a6 f4bb 9834 b9bc
000000a0: d537 803c 9666 30bd 2ca2 043e bf2d e53d
000000b0: d2b2 c8bd e068 2a3e 8205 773e 206f 473e
000000c0: 3472 573c 3b69 ae3e 5fb7 443e 8eba 5d3d
000000d0: 3614 823a 5b29 833d 523c 923d abb0 f2bc
000000e0: ee48 1a3d 11f6 543d 79c7 6abe f62f 663c
000000f0: 3cc3 b73d fb01 8bbd cf0d bb3b c73f 44be
00000100: 0b7f 0f3e c4fd f4bd fe5e a1be d280 bf3d
00000110: feb0 84bd c553 353d 41e0 453c 72d2 1f3e
00000120: ab53 85be 7c7c 543e db0f 04be 645a 49bd
00000130: cadb 313e 4c9c e23d fcfb e43c 3e5b f03d
00000140: 2234 72bd 579a 913c eaf4 35be adb1 8b3e
00000150: 08e8 f9bd d58c 0dbd 8a80 68bd 9006 97be
00000160: d84c 463d f39c 2e3e d416 b73d 2327 80bd
00000170: be45 5dbc f355 2e3e 529d 4fbe 99a9 6cbc
00000180: b13d 7f3d 16b7 c83a 521a 763d 2a44 e73b
00000190: 7fed 7cbc 04ed eebe d715 aabd e9e9 92bd
000001a0: 1cac 113e 9c21 753c b280 e93c 876c ec3d
000001b0: 899c 5bbe 7297 89be 9577 bf3d e7bb adbe
000001c0: 1cf7 81bc 5d63 38be eb1a 0a3d 5786 6a3c
000001d0: 2c0d ce3d 8ec2 1d3d 19eb d2bd 0baf b6bd
000001e0: 825c a5be 6087 413c 5437 5dbe 3c02 efbd
000001f0: 4b23 a43c 04d3 693d 109b b03d cc71 7ebe
00000200: 1c94 45be 19e2 a0bc b82b e7bd de15 a3be
00000210: 384f 123e 00ed 8abe b665 20bd 93f8 a13d
00000220: db2a 083e de72 dd3b 861d 31be a17f 4a3d
00000230: 42bc 7a3d a261 78bd 8123 1b3e bdc2 1abe
00000240: 8e07 16be 9235 2bbe 868e a4be 8944 81be
00000250: 42c4 803e 583e 6bbe 5595 9c3d 5a20 5dbe
00000260: 07ea eebd 7380 c4bc 3985 023e f941 2f3e
00000270: 8623 2d3e ce79 963e 60a2 173d 3ac7 073d
00000280: 2d5f 833c 2748 02bd fecf 89bd 42a6 8e3d
00000290: 3566 2ebe ba7f a53d 1b77 f7bd a29e a9bd
000002a0: 1850 63be 10dd 08be aa98 ce3d b18d 2c3d
000002b0: 87ea 05be b71f 3e3e 5600 b5bd cb1a 8b3e
000002c0: 5ce9 2e3d decc 683e d2d4 e9bd ef2c 0e3e
000002d0: cc2c 0c3e f6bf 86bd 2426 a5bd 0569 933d
000002e0: c165 51be 3a8a 01be a8ad 24bd 0dc0 63be
000002f0: 5da9 82be c8cd c2bd bdb3 c0be 7975 1fbd
00000300: 7757 dfbd 28fb 8dbd 3b79 a7bd aed0 24bd
00000310: bbc6 f33c 30c6 2cbe 4f56 30be 2930 84bd
00000320: 8e53 75bd 6518 963e 0aea 9c3e 0ae3 fcbd
00000330: 7239 5b3e 6823 0e3b a630 863e 89d7 c9be
00000340: 3189 fabb 620b 7abe 6bd9 18be 62f7 e4bc
00000350: a6d9 e9bc 5453 64be eeba e9ba a32a cb3d
00000360: 2c05 e53d fc1a 73be 671b 9f3c a2f5 533e
00000370: 8e45 07be 2970 273e 2a3a cabe 6760 9c3e
00000380: 2ba6 2d3d 7674 3f3e 0ab3 a53d c4ca cc3d
00000390: b2f6 5d3c 4440 e73d a81a e5bc 3c67 4c3e
000003a0: 6daa 453e 9418 95bd 8235 033d e926 febd
000003b0: 921d f03d cbe6 a1bd 290a 86be 0c70 0e3e
000003c0: faba 033e 573a ebbc 1a56 6cbe 5252 b23d
000003d0: b8f7 0ebe f6df 18bc 7b57 17be 59c3 743e
000003e0: 61b0 aebe cd14 26bf fb43 293d 95a0 633e
000003f0: 152f b2bd 6ad7 d33c a67c 05bc 442d 333c

fc2.bias f4 [64]
0.2576155 -0.09525169 0.019579062 -0.059709586 -0.006712182 0.0211654 0.049635265 -0.0022554153
-0.10889226 -0.121757075 0.21278666 0.093949035 0.04994629 0.04752871 0.056096833 -0.09742157
-0.006714733 -0.036408 0.39391682 0.11467328 0.034619574 0.05085425 0.087418675 0.036684047
-0.020706693 -0.058075722 -0.0005660574 -0.13001679 0.08906985 0.02963284 0.26724875 -0.013367705
-0.08819614 -0.015486517 -0.00063802436 -0.007883168 -0.044938024 0.12845226 0.13003363 -0.08018909
-0.02463678 0.041680947 -0.0054540825 0.30376032 -0.0071477 -0.009982314 0.3280366 -0.16608566
0.017300608 0.18557884 0.10796148 -0.025930937 0.031182315 -0.07927781 -0.07128391 -0.010049065
-0.10076231 0.2584679 0.053861883 0.04113991 0.298731 -0.06756031 -0.023413872 0.025753874
00000000: 2ee6 833e 5113 c3bd 4564 a03c 0a92 74bd
00000010: ddf1 dbbb 1063 ad3c 594e 4b3d 97cf 13bb
00000020: e802 dfbd c65b f9bd bfe4 593e 5a68 c03d
00000030: 7b94 4c3d 77ad 423d cbc5 653d f684 c7bd
00000040: 4307 dcbb 8e20 15bd 77af c93e d3d9 ea3d
00000050: 41cd 0d3d 8c4c 503d 9008 b33d 0342 163d
00000060: 15a1 a9bc cfe0 6dbd 7863 14ba 1f23 05be
00000070: 416a b63d 92c0 f23c d4d4 883e 3804 5bbc
00000080: 2ea0 b4bd 29bb 7dbc 1741 27ba 6728 01bc
00000090: ef10 38bd fd88 033e 8927 053e 2d3a a4bd
000000a0: 13d3 c9bc a4b9 2a3d 29b8 b2bb 7986 9b3e
000000b0: 4137 eabb dc8c 23bc 6af4 a73e 5c12 2abe
000000c0: 01ba 8d3c 6108 3e3e e91a dd3d 1e6d d4bc
000000d0: 0e72 ff3c 685c a2bd 4cfd 91bd d5a4 24bc
000000e0: 785c cebd e855 843e 479e 5c3d 5382 283d
000000f0: 45f3 983e 0f5d 8abd 73ce bfbc caf9 d23c

fc3.weight f4 [4, 64]
0.07286069 -0.14087456 -0.015411699 -0.15555725 -0.07259824 0.022431694 0.43363374 0.14566012
-0.032526627 0.037688687 0.15281954 0.027757617 0.117704 -0.11200849 0.1868771 -0.03879653
-0.035975657 0.1333133 0.17921828 0.014282163 0.14615035 -0.2753715 0.18323082 -0.16884257
-0.20536055 0.318303 0.53520817 -0.5226838 0.18976377 0.2936654 0.111949645 0.16412216
0.16728851 0.16162406 0.11990952 0.27437147 0.1356888 0.2291149 -0.078281716 -0.079102226
0.09944568 -0.022404334 0.18530683 0.31962892 0.26141003 -0.27840602 0.15245378 -0.18994339
0.053491235 0.009918699 0.13369654 0.41068646 0.09366175 0.04152345 0.18048629 0.10643668
-0.00028172566 0.12793727 0.24346118 0.1622809 0.14913043 -0.030868087 -0.17090291 -0.054734383
0.102428295 0.010135401 0.37550572 -0.2975803 -0.12130883 0.06554013 0.082718834 0.2373687
0.20593199 -0.15519537 0.10176798 -0.021932673 0.13422251 0.05352454 -0.088951044 -0.07293513
0.22330384 0.16409528 0.12666062 0.10558725 0.08767102 -0.24200386 0.30525386 -0.038521
0.03180751 0.40687662 0.1758883 0.03559259 0.040454105 0.25038692 0.10671853 -0.12543719
0.14684594 0.19539522 0.2383938 0.20610918 0.07957404 0.12096418 0.16474313 0.108012505
0.13692074 0.21505216 -0.17749813 0.16976091 0.20124629 -0.26443452 0.11610376 -0.17316575
0.09665367 0.12878728 0.1990631 0.1046431 0.22588187 0.048591714 0.3343268 0.0014149615
0.0712182 0.19043913 0.3054431 0.17124748 0.09039771 -0.37014022 -0.12923054 -0.105858326
0.006179128 0.26503056 0.44416624 -0.36416528 -0.041191425 0.11210217 0.48523486 -0.22493427
-0.261323 0.21317698 0.20237136 0.22309475 0.013935555 0.24979274 0.45268926 -0.21153043
0.4389651 -0.016595596 0.13959949 -0.054896463 0.13689047 -0.039666682 -0.042396754 0.1327887
-0.015004739 0.32838136 0.6908214 -0.16158588 0.066965744 0.2351077 0.07035599 -0.29531914
-0.2657171 0.28729317 0.44511774 0.13265464 0.26873344 0.23311646 0.035621587 -0.037964523
0.233177 0.12450408 -0.44198433 0.18021107 0.13966739 -0.15063861 0.120786406 -0.011437657
-0.05479489 0.13846137 0.11809758 0.21506779 0.13717043 0.1814157 -0.37134203 0.05304311
0.18562259 0.05693101 0.2130495 -0.061138142 0.12441971 -0.33920285 -0.07068737 -0.16570362
0.1515934 -0.039861195 -0.29697356 -0.07370008 -0.3602972 0.2572174 0.48626563 0.46096703
0.03500826 0.18272603 0.06334495 0.061125822 0.070954934 -0.032214604 0.22913662 0.18200387
-0.11004352 -0.111336015 0.1438793 0.01093388 0.022562467 0.14114945 0.2568237 0.046070416
-0.12752393 -0.15199801 0.21901712 -0.41996896 0.09345914 0.08329872 0.033042878 0.4049708
-0.28853288 0.21601054 0.32663518 0.40223652 0.30540147 0.18229982 0.16434313 0.18303116
0.12633295 0.15693739 -0.050970998 0.09183579 0.26608893 -0.24362846 0.12395231 0.014244507
-0.0027096677 0.12874255 0.008153082 0.3914531 0.2553324 -0.04227324 -0.056385525 0.025507987
-0.09901127 0.12924509 0.35144472 0.3618497 0.15401143 -0.29386538 -0.06433963 -0.36435106
00000000: fc37 953d 6c41 10be 5a81 7cbc 664a 1fbe
00000010: 63ae 94bd acc2 b73c 3e05 de3e ed27 153e
00000020: a43a 05bd 745f 1a3d ba7c 1c3e f163 e33c
00000030: cb0e f13d b564 e5bd b65c 3f3e 1ce9 1ebd
00000040: 365b 13bd 4883 083e ff84 373e bcff 693c
00000050: 70a8 153e 7efd 8cbe dca0 3b3e 11e5 2cbe
00000060: 094a 52be 9cf8 a23e 6703 093f 9bce 05bf
00000070: 6f51 423e 505b 963e db45 e53d a40f 283e
00000080: ae4d 2b3e c780 253e 1f93 f53d 6b7a 8c3e
00000090: 01f2 0a3e 199d 6a3e 2a52 a0bd 5900 a2bd
000000a0: 2daa cb3d 4b89 b7bc 13c1 3d3e 67a6 a33e
000000b0: 89d7 853e 3c8b 8ebe d81c 1c3e 8580 42be
000000c0: a019 5b3d 0a82 223c bfe7 083e 7f45 d23e
000000d0: bbd1 bf3d 7e14 2a3d 66d1 383e 79fb d93d
000000e0: 94b4 93b9 fd01 033e e34d 793e f72c 263e
000000f0: a6b5 183e 12df fcbc 2c01 2fbe 2931 60bd
00000100: edc5 d13d f40e 263c 4942 c03e 725c 98be
00000110: c470 f8bd e739 863d 7e68 a93d c810 733e
00000120: d6df 523e 89eb 1ebe bb6b d03d 26ac b3bc
00000130: a071 093e 8c3c 5b3d f72b b6bd 035f 95bd
00000140: c3a9 643e 9808 283e 52b3 013e 213e d83d
00000150: dd8c b33d dccf 77be 3c4a 9c3e 32c8 1dbd
00000160: 9748 023d 2252 d03e 101c 343e 89c9 113d
00000170: 34b3 253d b732 803e 3f8f da3d 9b72 00be
00000180: c85e 163e af15 483e 811d 743e 490e 533e
00000190: b7f7 a23d 11bc f73d 6cb2 283e a935 dd3d
000001a0: f334 0c3e a236 5c3e 12c2 35be ced5 2d3e
000001b0: 8213 4e3e f663 87be cfc7 ed3d 5d52 31be
000001c0: 5cf2 c53d d0e0 033e 33d7 4b3e 1f4f d63d
000001d0: 944d 673e 1b08 473d e22c ab3e 3b76 b93a
000001e0: d9da 913d 7a02 433e 0a63 9c3e 805b 2f3e
000001f0: 6f22 b93d 0583 bdbe 0355 04be 40cc d8bd
00000200: 487a ca3b 16b2 873e c269 e33e df73 babe
00000210: 57b8 28bd d395 e53d b470 f83e 2b55 66be
00000220: 21cc 85be 114b 5a3e 703a 4f3e f372 643e
00000230: f451 643c abc9 7f3e e3c6 e73e 6f9b 58be
00000240: 09c0 e03e 7df3 87bc 2bf3 0e3e 1ddb 60bd
00000250: 042d 0c3e 8879 22bd 38a8 2dbd c3f9 073e
00000260: 70d6 75bc 9a21 a83e acd9 303f c576 25be
00000270: 5625 893d 13c0 703e cd16 903d 1234 97be
00000280: 120c 88be 1718 933e 79e6 e33e 9ed6 073e
00000290: 6e97 893e 15b6 6e3e f1e7 113d b080 1bbd
000002a0: f4c5 6e3e fffb fe3d c54b e2be 4089 383e
000002b0: f804 0f3e 0241 1abe dd5e f73d 0365 3bbc
000002c0: 9b70 60bd d1c8 0d3e 25dd f13d bb3a 5c3e
000002d0: 6876 0c3e 0ac5 393e 8b20 bebe bb43 593d
000002e0: d913 3e3e 7e30 693d a629 5a3e fd6b 7abd
000002f0: c3cf fe3d ffab adbe 8ac4 90bd 36ae 29be
00000300: 4d3b 1b3e 7e45 23bd eb0c 98be 11f0 96bd
00000310: e078 b8be 00b2 833e cff7 f83e df03 ec3e
00000320: d264 0f3d 881c 3b3e ffba 813d 125f 7a3d
00000330: d250 913d 76f3 03bd caa2 6a3e 395f 3a3e
00000340: 7f5e e1bd 2304 e4bd 1855 133e 0424 333c
00000350: ecd4 b83c 7b89 103e 657e 833e 55b4 3c3d
00000360: a295 02be 5ea5 1bbe 0646 603e 2c06 d7be
00000370: 8167 bf3d 8598 aa3d f857 073d 5558 cf3e
00000380: 95ba 93be de31 5d3e ba3c a73e f2f1 cd3e
00000390: 955d 9c3e ceac 3a3e 9149 283e 856c 3b3e
000003a0: 6d5d 013e 32b4 203e f7c6 50bd 6714 bc3d
000003b0: cf3c 883e bd79 79be b5da fd3d cb61 693c
000003c0: ae94 31bb 16d5 033e 8194 053c 8a6c c83e
000003d0: eeba 823e b426 2dbd 82f4 66bd 20f6 d03c
000003e0: 6cc6 cabd d358 043e 90f0 b33e 5d44 b93e
000003f0: 2cb5 1d3e 8675 96be 7fc4 83bd 398c babe

fc3.bias f4 [4]
0.1930097 0.19705088 0.27511886 0.26275718
00000000: 56a4 453e b5c7 493e 61dc 8c3e 1c88 863e

a_state.weight f4 [1, 64]
-0.05914323 -3.3065677e-05 -0.055360317 -0.08186418 -0.028376818 0.03015557 0.013036966 -0.08064674
-0.026517257 0.0384596 -0.01136376 0.024068072 -0.028701365 -0.014009103 0.0010001063 -0.07320385
-0.021363243 0.04111731 -0.00885649 -0.09797293 -0.024176314 -0.0122036785 -0.0072139353 0.012486935
-0.00391306 0.013510004 -0.117345706 0.11839712 -0.02841349 0.033069625 0.03444934 0.10535315
0.014326662 -0.12163086 0.06351447 -0.118790194 -0.025713757 0.034676135 -0.073074654 -0.052131504
-0.007483691 0.0013233125 -0.0021231472 0.068933725 -0.0089982 -0.01434955 0.09091945 -0.10600218
0.097487316 0.0149080455 0.07203618 0.016985029 0.0015998036 -0.04271826 -0.056102276 0.10860889
-0.06407729 0.098492175 -0.0036352277 0.013450131 0.1135723 0.030270055 -0.09932083 -0.05239986
00000000: 2c40 72bd 00b0 0ab8 80c1 62bd 68a8 a7bd
00000010: 8076 e8bc d008 f73c 0099 553c 1e2a a5bd
00000020: b83a d9bc d087 1d3d 102f 3abc 682a c53c
00000030: 201f ebbc 7086 65bc 0016 833a e6eb 95bd
00000040: f801 afbc a06a 283d d01a 11bc 08a6 c8bd
00000050: 680d c6bc f0f1 47bc e062 ecbb 0096 4c3c
00000060: 2039 80bb 1059 5d3c f252 f0bd 307a f23d
00000070: 68c3 e8bc 0474 073d c01a 0d3d 64c3 d73d
00000080: 60ba 6a3c 9a19 f9bd e013 823d 4648 f3bd
00000090: a8a5 d2bc 9008 0e3d 2aa8 95bd d887 55bd
000000a0: c039 f5bb 0073 ad3a 8024 0bbb 202d 8d3d
000000b0: 306d 13bc 601a 6bbc fa33 ba3d ac17 d9bd
000000c0: 6ea7 c73d e040 743c b487 933d 3024 8b3c
000000d0: 80b0 d13a 58f9 2ebd 80cb 65bd 566e de3d
000000e0: f43a 83bd 44b6 c93d 003d 6ebb f05d 5c3c
000000f0: 9898 e83d e8f8 f73c b868 cbbd 3ca1 56bd
