checkpoint_doubledqn_only.pth (torch_old, 28811 bytes, 7 tensors)

fc1.weight f4 [64, 37]
00000000: 9c3d a73d 3516 da3c 5480 7abd 1773 b3bd
00000010: ca32 ab3b 2f34 19be 1df1 e93d 6202 593e
00000020: 3413 813e 710e da3e 509e 373d b913 2abc
00000030: 2731 b33c f4ea c53d 698a 98bb e050 ca3d
00000040: a80c 823d 521a 623d e047 8bbd 30db 9ebe
00000050: 6165 19be 04de c4bd 4d02 153c ffe0 46be
00000060: 9a37 13be c06d c5bd e7a5 e13b 5719 38be
00000070: 6454 86be 081e acbe fc2f 183d b398 813d
00000080: 8cd7 293d b23b 003e bb7d e83b 11e7 67be
00000090: a9e0 913d 2965 1c3d 45a5 d93d 7423 1c3c
000000a0: 74b4 2a3e e3df 273e 83f0 70be a2e4 4e3d
000000b0: 9bf4 dc3d a56a f03d 3505 9dbe a4fb ac3d
000000c0: c991 88be f702 1ebd bc9d c3bc fa1b 273e
000000d0: d5d0 a83d b473 fb3c 5b48 1bbd 2534 36be
000000e0: b0bd 8abd 5270 30bd d936 4e3e a776 1c3d
000000f0: 63f8 823d 17d0 e6bb e238 91be d6ef 9ebd
00000100: a9fb 563e ec65 a43e 3a43 e73d ef38 9abd
00000110: d765 babd acc6 563d 290e ea3d 288d d33d
00000120: e5c5 a63c 755f e13c 26a3 94bd 75c9 8bbe
00000130: 9352 443d 84df d3bd 0818 72be df68 2abe
00000140: c10e ed3d 3a18 d83d efa8 2dbe 8eb7 e33b
00000150: eca8 b23e 4ace abbe c2c0 b5bb 034e 8abe
00000160: 13e3 6abe 766e 04be 3695 92be 2350 953e
00000170: ccdf 3b3e bc64 a7be ace3 a0bc 5a9f 953d
00000180: 3844 c53d 1187 84be 0e31 14be 1c33 97be
00000190: 6331 b6be 8847 9a3e 66d0 0b3d 10f7 8cbe
000001a0: 7424 173d ac93 7ebe 66f7 c33d 8615 08bd
000001b0: 410e a33b efd2 cb3d c8e7 14b9 a1ab d03e
000001c0: 91c2 493d 3d9a d1be 01de 11be fa5b 23bf
000001d0: 31e5 b7bc 63ee fb3d a55e b7bd a5c7 103e
000001e0: 8410 7a3e 0978 1f3e a0f7 86bd 7241 c7bd
000001f0: b0e4 a7bd 491b a2bd 5c30 34bc 72c4 2e3d
00000200: fb31 fdbd 07fc 0ebe d0fb 24be 1f70 1a3d
00000210: ed10 453c 9c76 513b c4c2 42be cfd9 333d
00000220: 55ec 7ebd fdb5 15bc afdd d93d 7615 d93b
00000230: ea13 e53c 1d3b 3e3e 78e7 933d 7c0e c73d
00000240: 7bf9 4b3c 88cb 09be 511f b63c a8b4 cbbc
00000250: 96eb 1d3e db39 a1be a5f0 87bd 9d4a 96be
00000260: db06 d6be ec0a 41be 3293 8cbe 1a4b 403d
00000270: b394 5c3e 9b3f d73d 9227 063e 6279 2ebe
00000280: 33e1 283c 3290 44be 05fa 1d3e 9a9e e23d
00000290: b7f0 57be d074 913d 9bfd 9ebe b8eb a0be
000002a0: 6dab cbbd a9c9 863c f026 06be a083 693e
000002b0: ec3d 06bd f474 96bd a9ea 323d 29e1 40be
000002c0: 38e2 f53d 0a79 02be 07a9 173e 8b4c 0e3d
000002d0: a1b9 79bd 7a12 72bd 3017 843e 6021 5b3d
000002e0: 1219 9bbc 8662 66bd 2b42 2fbc 79b0 f83d
000002f0: ffc6 053e 74c4 163e 7b8b 31bc bb60 f03d
00000300: 6548 b2bd a304 12be b735 843e 9682 47be
00000310: fc52 c63d 192b 44bc a660 98bd 3c3d 893d
00000320: f529 b3be f3de 7b3d 21b6 dbbb 2e70 c63e
00000330: 8661 023e 68cc 17be 6ea6 cc3b f3e6 25bd
00000340: 38a8 333e 04a6 263e 8037 473d 7d5b 3fbe
00000350: 6fe1 41be cadb af3e 7c40 863e 82fe 6b3d
00000360: 28f9 a2bd 8d94 143d 9e81 e03d 6c50 19be
00000370: f2aa fd3d beb4 743b 2b01 d3bd a59b 613d
00000380: b1d1 a7bd 373f d3bd 9c84 fa3b bda5 043e
00000390: dcde 683e 6dc6 ec3d a06f 1abe a81c 05be
000003a0: d585 493d 1e09 d23d a9e0 5a3d fa19 413e
000003b0: 337d 683e 5c68 1f3e 3616 41be c39b 843d
000003c0: c474 023c 1b9f 0d3e 7f1c 44bd 33b5 483c
000003d0: b5a2 a83d bef2 a23d 061d 853e b2d9 35bd
000003e0: 00a2 f3bd 80ab 08bd cf67 40bd 81e3 843e
000003f0: 7b81 6b3e fcde fd3d 301c 8ebd 1215 74be
0.08166048 0.026621917 -0.06115754 -0.08762186 0.0052245604 -0.14961313 0.11422942 0.21192315
0.25209963 0.42589143 0.044828713 -0.010380679 0.021874024 0.096639544 -0.0046551717 0.09878707
0.0635007 0.055200882 -0.068008184 -0.31026602 -0.14980079 -0.096126586 0.009094787 -0.19421767
-0.14376679 -0.09640074 0.006886232 -0.17978416 -0.2623626 -0.33616662 0.037155136 0.06327953
0.041465327 0.12522772 0.0070950664 -0.22646739 0.07122929 0.03818241 0.10627226 0.009529937
0.166704 0.16394 -0.23529248 0.05051101 0.10788842 0.11739091 -0.30668035 0.08446434
-0.26673725 -0.038577046 -0.023878925 0.16319266 0.082429565 0.03069482 -0.0379108 -0.17793329
-0.06774461 -0.043075867 0.2013811 0.038199093 0.06395032 -0.007043849 -0.2836371 -0.07760589
0.20994438 0.3210901 0.11292119 -0.075303905 -0.09101456 0.052435562 0.11428482 0.10329658
0.020358035 0.027511338 -0.072576806 -0.27302137 0.04793031 -0.103453666 -0.2364198 -0.16641568
0.1157508 0.10551496 -0.16958974 0.0069493717 0.34894502 -0.33555824 -0.00554666 -0.27012643
-0.22938184 -0.12932763 -0.28629464 0.29162702 0.1834709 -0.32694042 -0.019639812 0.073057845
0.09632152 -0.25884297 -0.14471838 -0.2953118 -0.35584554 0.301327 0.03413429 -0.27532244
0.0369 -0.2486102 0.09568672 -0.03322365 0.0049760644 0.09952342 -0.00014200725 0.40755942
0.04925782 -0.40937987 -0.14244844 -0.6381222 -0.022448154 0.12301328 -0.08953599 0.14138658
0.24420363 0.15573134 -0.065901995 -0.097292796 -0.081979156 -0.079153605 -0.010997858 0.042667814
-0.12363049 -0.13963328 -0.16111684 0.037704583 0.012027961 0.0031961566 -0.1901961 0.04390889
-0.062237103 -0.009137628 0.10637986 0.006624873 0.027963597 0.18577237 0.072218835 0.097195596
0.0124496175 -0.13456547 0.02223173 -0.024866417 0.154219 -0.31489453 -0.06637696 -0.293538
-0.41802105 -0.18851823 -0.2745605 0.046946622 0.21541099 0.10510179 0.13101032 -0.17038491
0.010307598 -0.19195631 0.15427406 0.11065407 -0.21087919 0.07102358 -0.3105286 -0.3142984
-0.09944806 0.01645358 -0.13100791 0.22804117 -0.032773897 -0.07346526 0.04368082 -0.18835892
0.120060384 -0.12741485 0.14810573 0.034740966 -0.060968045 -0.059099652 0.2579894 0.053498626
-0.018932853 -0.056246303 -0.010696928 0.121430345 0.13064192 0.14723378 -0.010836477 0.117372
-0.087052144 -0.14259581 0.2582223 -0.19483408 0.09683797 -0.011973166 -0.07440309 0.06701133
-0.34992948 0.061491918 -0.006705061 0.3875746 0.12732515 -0.14824069 0.006245426 -0.040503453
0.17544639 0.16274267 0.048636913 -0.18687244 -0.18933652 0.34347373 0.26221073 0.057615764
-0.07957679 0.03627448 0.109622225 -0.14972085 0.12386121 0.0037339176 -0.10302957 0.055080075
-0.08194292 -0.10314792 0.007645203 0.12953849 0.22741264 0.11561284 -0.15081644 -0.12999213
0.049199898 0.10255645 0.05343691 0.18857566 0.2270401 0.15567154 -0.18856129 0.06475022
0.007962409 0.13830225 -0.04787874 0.0122502325 0.08234159 0.07956456 0.25998706 -0.044397064
-0.118961334 -0.03336668 -0.046974 0.25954822 0.22998612 0.123960465 -0.0693897 -0.23836163

fc1.bias f4 [64]
00000000: d4e3 573c 41bb 97bb 3c11 8fbd dae9 2bbd
00000010: 0689 adbd b02c 573d 6e27 7cba ae0b 6ebc
00000020: bf25 6a3d 8c80 8c3d 3e07 20be 28b9 c9bc
00000030: a969 13bc 136f d8bd ca47 e0bd f36a 923d
00000040: 6328 d7bd 5bfa 803d f348 813c 04c6 923d
00000050: 5a39 12bd acbb 0a3c f6c3 8d3b a62b 30be
00000060: 05be 01be 7795 43be 8d40 82bd 05ca 80bd
00000070: b484 2abe 2ba3 a5bc b40a 56be 6239 97bd
00000080: 8cf9 e8bd 3b1a 24be afe5 863e 09fc f7bd
00000090: 23b1 943c 0cf8 94bd acce f2bc 7567 eabd
000000a0: d755 55be afb9 623d dafb 0abe 076d eb3d
000000b0: 9cc1 063e ca0d a2bc d19e 6fbe a81d 283d
000000c0: ab7e 4f3d c607 2abd 8762 853d 48f1 c4bd
000000d0: e2f3 dfbd a59e 053e 699a 913d 56a4 9d3d
000000e0: fff0 d7bb 46c4 6ebe dd7a 353d 30fa 5d3d
000000f0: 6673 893d 0ead dc3d 64f6 98bc 18b1 833d
0.013176877 -0.0046304767 -0.06985709 -0.041971065 -0.08473401 0.05253285 -0.00096189126 -0.014529152
0.057164904 0.06860456 -0.15627763 -0.024624422 -0.008997359 -0.10568061 -0.10951193 0.07149305
-0.1050575 0.062977515 0.015781855 0.07166675 -0.035699226 0.008467596 0.004326339 -0.1720415
-0.12670143 -0.19099985 -0.06359968 -0.06288532 -0.16652185 -0.020219406 -0.2090252 -0.07383992
-0.11375722 -0.16025631 0.2634711 -0.12108619 0.018150872 -0.07273874 -0.029639564 -0.11445514
-0.20833527 0.055352863 -0.13572636 0.11495405 0.13159794 -0.019781966 -0.23400427 0.041043907
0.05065791 -0.04151132 0.06512933 -0.09616333 -0.10935189 0.130488 0.071095295 0.0769736
-0.0065900083 -0.2331706 0.044306625 0.054193676 0.06711464 0.10775195 -0.018672176 0.06430262

fc2.weight f4 [64, 64]
00000000: 5df9 fd3d 2eca 3e3e 1a43 6ebc fa78 123e
00000010: 3217 823d 7937 bb3c 6fdf 8e3c cc8f 09bd
00000020: acb2 9e3c 7238 9c3c 7476 e7bc e45e c23c
00000030: a580 543d 6713 ba3d 9490 8bbd 35a5 d23c
00000040: 246c 6cbc 6883 033b 3986 adbe 122c 89bd
00000050: ecbd 0b3d 13b4 2cbd b925 66bd 8927 1cbe
00000060: fa45 e43c b98a 0fbe 4602 143e 433f 83bd
00000070: c9f8 21be 4d0c 1a3e 0e3d 8e3d 14a9 953d
00000080: 66b4 a0bd eb89 c13d 4d21 dabd a31b 753e
00000090: 41ce fa3d 1357 0bbe bf15 d8bc 1559 063e
000000a0: 0d41 cf3d df8d 22bd d064 8b3e abb3 a73d
000000b0: 2336 12be 1e3e 183d 0530 123e e386 b33d
000000c0: ab83 ea3c 86df f73e 81db 26bd a441 723d
000000d0: 4abd e339 df9c 393d 8cb3 d03d 70de a5bd
000000e0: 09c4 da3c 9f05 b0bc 9e69 7fbe e372 083e
000000f0: ed19 6dbb 46f1 6abe 8eb8 53be 29e1 86bd
00000100: b122 e93c 7c3c da3d 0b29 9dbd 03cc df3c
00000110: a274 92be 5ed0 7a3e a794 babb 93ef b6bc
00000120: 9d18 ff3d a6e2 b7be 030c 26bc 313f cb3c
00000130: d424 d13c 7f07 273e 0137 f0bd 1f22 773d
00000140: d70d d13d d9c0 b23c 4eda 0ebe 13be 76bc
00000150: b30c 9a3d 6ca3 613c 8c20 62be 3d7c 90be
00000160: d594 05be a63e 7c3d 798b e63d e63f 553e
00000170: 41b5 9dbe 352b 2dbe eea1 bcbd 7821 ea3c
00000180: 936d cdbc 2c01 d6bd ace2 983c ede9 0bbd
00000190: c8a5 60bd c044 3ebd dc73 493d b8b2 c03d
000001a0: 56a4 db3c bb60 5dbe 8254 cbbe fe94 f23d
000001b0: 9696 8cbe bb72 2ebe c817 503d f592 07be
000001c0: 0c55 0b3e a9d4 83be c30a 993c cf1d 89bc
000001d0: 9a59 53bd a623 1f3d 960b babc db0b cebd
000001e0: e104 90bd 332c 403d 69d4 4dbe 3728 3fbe
000001f0: 4b89 12be 619c 753c e967 a5bd 0c47 93be
00000200: 997a bdbc 7725 2f3d 7fa9 423e c8f1 b7bd
00000210: c6a4 2bbe 42af f2bd 1eff 7fbe 014c abbd
00000220: 30d9 ccbc 3ca7 5e3e 5530 cc3c 9849 e73d
00000230: 9851 7f3d d890 143d b578 da3d a925 eebd
00000240: 595c 19be df02 f03d b4dd a73e 14d3 cabd
00000250: 7d7c f13d a28b e2bd 4157 663d 84b0 1d3d
00000260: 2048 73be f883 05bc 684e 0f3e 4c61 073e
00000270: ac85 03bc a790 da3d 4537 6a3e e6c4 05be
00000280: 5cd3 21bd 3d2c 2cbd 92f6 08be f143 21be
00000290: 53fa 85be f908 783d 9d5b da3d 457d 973c
000002a0: f0ef 883c 14b3 683d 8449 97be 4361 a2bd
000002b0: 0c20 f9bd ff2b 003e 609a 79bd 0c1a 45be
000002c0: cd76 1bbd c6a5 d43d 2c70 f9bd 662d dcbd
000002d0: 78f8 cd3d 6341 3b3e 8ac0 313d b93c 8a3b
000002e0: a88c bdbd 287b 833e c5cb 29be 67c0 8e3b
000002f0: 03fc 833d 7bde d53d f29d 22be 1d86 a5bd
00000300: 5cbe 8d3d 69a4 2dbd d405 c9bc 5706 4d3e
00000310: 7af2 9c3d 4375 e8bd a213 17be 325a 4e3e
00000320: 3711 64be 57f1 9cbd f46e 2d3e 243e 173e
00000330: 70bc 563d 4856 903d 4cb1 993e 4684 40be
00000340: 0ef6 64bd 3e78 e8bd f628 56bd 0e1d 10be
00000350: b8f7 cfba 19f9 f2bd e7c1 a839 6a5a bbbc
00000360: 4e12 e2bd 55ae 9dbe d575 023d 4648 59bd
00000370: bc5c d83c efab 273e e4b8 8bbe 047f 2fbd
00000380: c421 76be 7268 923d 7793 323e 5078 59bd
00000390: 9d6f a5bd ccc2 c8ba fbac 6d3c 294f 43be
000003a0: e230 213e 5231 1cbe 3c44 fbbd f272 71be
000003b0: 3af4 323e 692a 9d3d f05e 0dbe d4c0 8e3e
000003c0: 8e90 473e 128a 813e 0dff a9be 9079 803e
000003d0: 4838 99be f486 193e e4a2 783e d2f3 863e
000003e0: d000 85bd 92dc b1bd aaa1 0e3d 39cc 0c3e
000003f0: 4fa0 24be 2130 b13d 6aac b7bd e695 e3bd
0.12401078 0.18631813 -0.014542365 0.14303961 0.063520804 0.0228536 0.017440526 -0.0335844
0.019372307 0.019069884 -0.028254725 0.023726888 0.051880497 0.09085732 -0.068146855 0.025713542
-0.01443008 0.0020067338 -0.33891466 -0.06697859 0.03411667 -0.04216392 -0.05618832 -0.15249456
0.027865399 -0.14017762 0.14453992 -0.064085506 -0.1581756 0.15043755 0.06945239 0.0730764
-0.07846908 0.09450134 -0.10650883 0.23936324 0.12246371 -0.13607435 -0.026377557 0.1311992
0.10119829 -0.03968608 0.2722535 0.08188566 -0.14278464 0.037168615 0.1427613 0.08765962
0.028627237 0.48412722 -0.04073668 0.05914463 0.00043437845 0.04531562 0.10190496 -0.08099067
0.026704805 -0.021487055 -0.24942634 0.13325076 -0.0036178783 -0.22943601 -0.20675871 -0.06585915
0.028458925 0.10656068 -0.07673844 0.02731896 -0.2860461 0.24493548 -0.0056939903 -0.022331035
0.124558665 -0.35915107 -0.0101347 0.024810405 0.025530256 0.16311453 -0.11729241 0.060335275
0.10207718 0.021820473 -0.13950464 -0.015059966 0.075219534 0.013771873 -0.22082728 -0.28219786
-0.13045056 0.061583184 0.11257071 0.20825157 -0.30802348 -0.16911013 -0.09210573 0.028580412
-0.025076663 -0.10449442 0.018662773 -0.034158636 -0.0548456 -0.046452284 0.049182758 0.09409088
0.02681176 -0.21618931 -0.39712912 0.11844824 -0.27458638 -0.17035954 0.05080393 -0.13239653
0.13606662 -0.25748184 0.01868189 -0.016737847 -0.051599123 0.038852356 -0.022710603 -0.10060855
-0.070321806 0.04691715 -0.2010056 -0.18667684 -0.14310186 0.014990897 -0.0807646 -0.28765142
-0.023129748 0.04276034 0.1900997 -0.08981663 -0.16762075 -0.11849834 -0.24999663 -0.08364106
-0.025005907 0.21743482 0.02492539 0.11293334 0.062333673 0.036270946 0.10667554 -0.11628277
-0.14976634 0.117192976 0.32786334 -0.09903541 0.117913224 -0.11061789 0.056235556 0.038498417
-0.23757982 -0.00814914 0.13994753 0.1322071 -0.008027475 0.106721215 0.22872646 -0.13063392
-0.03950821 -0.042034376 -0.13375309 -0.15748574 -0.26167545 0.060555432 0.10662005 0.01849235
0.016715974 0.056811407 -0.29548275 -0.079287075 -0.121643156 0.12516783 -0.06093824 -0.19248217
-0.037955094 0.10383181 -0.12179598 -0.107508466 0.10057157 0.18286662 0.04339651 0.0042186645
-0.09255344 0.25679898 -0.16581638 0.0043564322 0.06444552 0.104428254 -0.15880564 -0.08082221
0.06921074 -0.042393122 -0.024538912 0.2002195 0.07663436 -0.11350491 -0.14753583 0.20151594
-0.22272192 -0.076632194 0.16936857 0.14769799 0.0524258 0.07047707 0.3001808 -0.18800458
-0.05589872 -0.113510594 -0.052285157 -0.14073583 -0.0015866673 -0.11863918 0.00032187926 -0.022870261
-0.110386476 -0.30797067 0.031850655 -0.05304744 0.026411407 0.16374181 -0.27289498 -0.04284574
-0.24036318 0.071488276 0.17439066 -0.053093255 -0.08077929 -0.0015316843 0.014506574 -0.19073166
0.15741304 -0.15253189 -0.12268874 -0.23579004 0.17475978 0.07674105 -0.13805747 0.2788149
0.19488737 0.25300652 -0.332024 0.25092745 -0.29925752 0.14992887 0.24280888 0.26357895
-0.064942956 -0.086846486 0.034822144 0.1374978 -0.16076778 0.08651758 -0.08968432 -0.11112575

fc2.bias f4 [64]
00000000: c496 663e 49df 31be 4262 763d 96e9 113d
00000010: 8c29 52bd 9811 c6bd 991a c93d f5ca 503c
00000020: c946 d0bd 3809 d0bd d6d2 143e 673c 023d
00000030: 0ae0 b63c 9724 913d ea2c 69bc 330a 13bd
00000040: 5325 a7bc a0ea 9fbd 8439 cb3e 18ef 63bc
00000050: 7b8a c2bd df80 b93d 1ac0 483d 6934 2c3e
00000060: fcd0 983b 6d78 dcbc 5c74 d4bc 8a4d 54be
00000070: 18ee bebc bcc1 993d 59e1 873e ea3f c2bc
00000080: 197e 58bd feb5 adbd d83d be3c 5217 0e3e
00000090: cc55 d4bd 0f7f 783c bad0 473d 0ef8 abbd
000000a0: 95b1 c4bc 593e 133e 8702 a8bd fdfd a23d
000000b0: 4e7a fbbb 8bad 01bc 8c0a 9e3e 4866 0abe
000000c0: 7859 243c 0571 a43d 6a11 4b3e b40c cebd
000000d0: ba0b e3bc 76cb 96bd 3b8f babc ff6d 2e3d
000000e0: f1b7 0cbe 21d2 a93e 031a 75bb 8476 e63c
000000f0: 0a82 1b3e ed0d b1bd 8a04 dd3c db0c d83d
0.2251845 -0.17370333 0.0601523 0.035623156 -0.051309153 -0.096713245 0.09819526 0.012743701
-0.10169751 -0.10158008 0.14533553 0.031795885 0.022323627 0.07087057 -0.0142319 -0.0358984
-0.02040354 -0.07808423 0.39692318 -0.013911985 -0.09499069 0.09057783 0.049011327 0.16816868
0.0046635848 -0.026912892 -0.02593439 -0.20732704 -0.023306891 0.07507655 0.26539114 -0.023712117
-0.05285463 -0.08481978 0.023222849 0.13876083 -0.10367927 0.015167012 0.04878304 -0.08396922
-0.024010459 0.14379252 -0.08203607 0.07958601 -0.007674492 -0.007914911 0.30867422 -0.1351558
0.010031097 0.08029369 0.19830862 -0.10061017 -0.027715553 -0.07363026 -0.022773376 0.04258537
-0.13742043 0.33168128 -0.0037399537 0.028132685 0.15186325 -0.08645234 0.026979703 0.10549327

fc3.weight f4 [4, 64]
00000000: 719d 2b3d 2f98 5cbe f22e 903d cca0 c43d
00000010: 3ea1 07be b5a6 3fbe 3c50 143e 54c2 173e
00000020: 98c1 a13a da3b 083d 8b66 a53e f432 0e3d
00000030: a483 f83d ff4a 94bd d032 453e 6de5 f93d
00000040: 60e3 8fbd e096 543e 2eb9 4b3e dd0d fabc
00000050: cb5f aa3d bd7c a83d 24a6 d53d ac43 423d
00000060: c85c 9ebc 0b56 c43d 6340 72bb 5ca4 17be
00000070: 0664 5e3e 1442 6b3e 12b0 223e ac15 bb3e
00000080: 8f67 813d 9176 8b3d 318a 1a3e 73ac 2f3e
00000090: c60f b9bd 6bcb 9d3d c286 94bd aa90 ab3d
000000a0: 7217 ef3c cbaa 4c3b 5145 5bbe e312 893d
000000b0: d637 cb3e f665 eebd 35b7 1f3e 0f50 35be
000000c0: ec99 ab3d c407 eabd 0ff4 943e 1d4d e33e
000000d0: 4b4e 4ebd d20d b43e 4de5 b03d cba6 803d
000000e0: 45ad e0be bd8a 4b3e 7b5b 893e a563 77be
000000f0: 5259 c73d 85ab f73d 5931 52be 4482 6e3e
00000100: 1cd5 bc3d d2d8 22be 7c4b 0b3e f595 383e
00000110: a010 7dbe 5db5 82be d30f 0ebc 1607 bbbd
00000120: 8bc0 be3e 286a 30be 651c 163e 5e92 573d
00000130: f3d6 393e 424d 4b3e d8b0 88bc 3923 19bd
00000140: 6104 e9bd fff5 a73e 8ea3 193e 3080 733c
00000150: f74b 49bd d81f 273d 48db 163e ffc5 0b3e
00000160: fc49 743d cbaf 8e3e c77b 8e3e 6bb2 78be
00000170: 0480 773e 961a 493e 0867 fd3d c5bd b23e
00000180: 16d8 4bbe 50cf 64bd 9ecb 513e a667 933b
00000190: a1c9 39be 7449 383e ae46 df3d 1688 2c3e
000001a0: 559b fe3d da02 383e 3514 9cbd 6696 673e
000001b0: 8c51 873e 35fc 6bbe 5b23 023e 3a01 3dbe
000001c0: 90b7 c13d c0f4 f33d 2ea6 643e a44c ddbd
000001d0: d965 c43d 1437 853c 3928 303e ba7b 1a3e
000001e0: 8fc3 97bd 87b1 323e a188 f93e 2ca0 c93d
000001f0: b1ca 0ebb f0c4 bd3d 62cd ebbd 3aad 47bd
00000200: 75c2 e0ba 1ab3 2ebe fc46 883e 1787 b9bd
00000210: 3f65 1c3e d330 31bc 9885 af3e 215f a43d
00000220: e064 e4be 31d9 3c3c 6e11 803e 10f0 463e
00000230: 731a c33c c5cb 153e 01c6 103e 0ed5 7b3d
00000240: 8403 3bbe 285a 7c3d 849d 383e dff2 60be
00000250: c18c 02bf 251a 0c3e 90c2 10bd e7d2 283e
00000260: 23ee d6bd 2922 663e f272 d93e b541 72be
00000270: b835 b93d 2f2b 1b3e b237 863d d3ff 0b3d
00000280: fec7 aebe deef 923e 9658 9e3e ff9b c83d
00000290: 917f 1c3d 61b9 a13e 93e4 fd3d 7d79 1fbe
000002a0: 90fd 853e 504f a8bc f958 9cbd c932 523d
000002b0: 5e53 fb3d 1eef 83bd 11ec 0d3e 05f5 53bd
000002c0: b72c b8bd f5e8 253e 56d9 073e 7f5f 4b3d
000002d0: 82be 2d3e f9e8 e53e c0c6 00bf aad0 f63e
000002e0: 086b 9c3d edef e13d c092 c13c 6cb4 44be
000002f0: 6330 263e d1fd 903e 2b6a 0abe 962e 37be
00000300: b029 513e 8c41 0ebe d15f 06be b6b1 703e
00000310: a7e7 af3d 4a6a 80bd 5926 10be 5c4e b63e
00000320: 8b43 36be de44 67be 199e a03e 1e52 023e
00000330: 0364 e63c 9d2a 9d3d 69ba d33e 3256 bd3e
00000340: 8a81 83be b9b1 14be 7b4d 0d3e 0571 07bd
00000350: 7a06 823e 938d 023e 5b3d 703e fa34 143e
00000360: f30f 2cbe 086e 503e 2f5e cf3e b29b eabe
00000370: e8fc 8abb 8edc cd3d 5556 763c 3e90 c03e
00000380: b374 d6bd 0194 703d 523c 3e3e 9665 293d
00000390: ff53 363c 445a d63e 1629 49bd 738e b03e
000003a0: 4b6a df3d f448 933d 88bf 683d b926 a43d
000003b0: 881c 943e 398b 2cbe c8ce ad3d 80f2 013c
000003c0: 6da0 333d 5192 e23d 36de 193d c12e 753c
000003d0: 0b7f 833d 9c81 9f3c c226 0dbc 8443 0e3e
000003e0: 95e9 74be 5de6 253e 6fd5 813e 3e64 ba3d
000003f0: 98dd d73d 379a 01bf 6060 80be 531b 64bc
0.041898195 -0.21542428 0.07040204 0.09600982 -0.13245103 -0.18715937 0.14483732 0.14820224
0.0012341021 0.033260204 0.32304797 0.03471656 0.121344835 -0.07240867 0.19257665 0.122019626
-0.0702579 0.20760679 0.19894859 -0.030524189 0.08319052 0.08226917 0.104320794 0.04742782
-0.01933135 0.09586724 -0.0036964647 -0.14808792 0.21717843 0.22974426 0.15887478 0.36539972
0.0631858 0.06809724 0.15091778 0.17155628 -0.09036212 0.077048145 -0.072522655 0.08377202
0.029185984 0.003122973 -0.21413161 0.066930555 0.39691037 -0.11640541 0.15597232 -0.17706321
0.08378968 -0.114272624 0.29092452 0.4439477 -0.050367635 0.35166794 0.08637486 0.06281813
-0.43882194 0.19877143 0.26827607 -0.24159105 0.097338334 0.12093262 -0.20526637 0.2329188
0.09220335 -0.15903023 0.13603014 0.18025954 -0.24713373 -0.25528994 -0.008670765 -0.09132211
0.37256274 -0.17227995 0.14659269 0.05262982 0.18148403 0.1985369 -0.016685888 -0.037387107
-0.11377788 0.32804868 0.15003797 0.014862105 -0.04914471 0.040801853 0.14732087 0.13649748
0.05964087 0.27868494 0.2782881 -0.24286811 0.24169928 0.19639048 0.12373167 0.34910408
-0.19906649 -0.05586177 0.2048783 0.00449844 -0.18143322 0.1799677 0.10902153 0.16848788
0.12431971 0.17969838 -0.07621042 0.22615966 0.26429403 -0.23045428 0.127088 -0.18457499
0.0945884 0.11911917 0.22329018 -0.10805634 0.095897384 0.016261615 0.17202844 0.1508626
-0.07410347 0.17450534 0.48737052 0.098450035 -0.0021788294 0.092660785 -0.11513783 -0.048749186
-0.0017147796 -0.1706051 0.26616657 -0.090589695 0.15272997 -0.010814863 0.3428161 0.08025957
-0.44608212 0.011526392 0.25013298 0.19427514 0.023816323 0.14628513 0.14138032 0.06148248
-0.1826306 0.061609417 0.18028837 -0.21967648 -0.50996023 0.13681848 -0.0353418 0.16486703
-0.1049464 0.22473969 0.4247051 -0.23657878 0.09043449 0.15153192 0.06553592 0.03417952
-0.34136957 0.2869863 0.3092696 0.09795379 0.038207594 0.31586745 0.12397113 -0.15573688
0.26170015 -0.020545632 -0.07634158 0.051317964 0.122717604 -0.06442092 0.13859583 -0.05174734
-0.08992904 0.16202147 0.13266501 0.04965162 0.16967204 0.44904307 -0.5030327 0.48206073
0.07637602 0.1103209 0.023629546 -0.1920945 0.16229396 0.28318647 -0.13517062 -0.17888865
0.20426059 -0.13892192 -0.13122489 0.23505291 0.08589106 -0.06270273 -0.14077128 0.35606658
-0.17799203 -0.22584864 0.3137062 0.12726638 0.028123861 0.076741435 0.41353157 0.36979824
-0.25684768 -0.14520921 0.13799088 -0.03306677 0.25395566 0.12749319 0.23460905 0.14473334
-0.16802959 0.20354474 0.40501544 -0.4582191 -0.0042415746 0.10051833 0.015035232 0.37610048
-0.10471477 0.058734898 0.18577698 0.041356646 0.011128425 0.41865742 -0.04911145 0.3448368
0.10908946 0.07191649 0.056823283 0.08015198 0.28928018 -0.16849984 0.08486706 0.007931352
0.043854166 0.11063064 0.037565432 0.01496476 0.06420716 0.019470982 -0.008615198 0.13892943
-0.2391723 0.16201158 0.2535815 0.09101151 0.105403125 -0.5062594 -0.25073528 -0.01392253

fc3.bias f4 [4]
00000000: 8a4e 4b3e 2f1e 293e d53d 6d3e 30fd 823e
0.19854179 0.1651542 0.23168118 0.25583792

a_state.weight f4 [1, 64]
00000000: 2c40 72bd 00b0 0ab8 80c1 62bd 68a8 a7bd
00000010: 8076 e8bc d008 f73c 0099 553c 1e2a a5bd
00000020: b83a d9bc d087 1d3d 102f 3abc 682a c53c
00000030: 201f ebbc 7086 65bc 0016 833a e6eb 95bd
00000040: f801 afbc a06a 283d d01a 11bc 08a6 c8bd
00000050: 680d c6bc f0f1 47bc e062 ecbb 0096 4c3c
00000060: 2039 80bb 1059 5d3c f252 f0bd 307a f23d
00000070: 68c3 e8bc 0474 073d c01a 0d3d 64c3 d73d
00000080: 60ba 6a3c 9a19 f9bd e013 823d 4648 f3bd
00000090: a8a5 d2bc 9008 0e3d 2aa8 95bd d887 55bd
000000a0: c039 f5bb 0073 ad3a 8024 0bbb 202d 8d3d
000000b0: 306d 13bc 601a 6bbc fa33 ba3d ac17 d9bd
000000c0: 6ea7 c73d e040 743c b487 933d 3024 8b3c
000000d0: 80b0 d13a 58f9 2ebd 80cb 65bd 566e de3d
000000e0: f43a 83bd 44b6 c93d 003d 6ebb f05d 5c3c
000000f0: 9898 e83d e8f8 f73c b868 cbbd 3ca1 56bd
-0.05914323 -3.3065677e-05 -0.055360317 -0.08186418 -0.028376818 0.03015557 0.013036966 -0.08064674
-0.026517257 0.0384596 -0.01136376 0.024068072 -0.028701365 -0.014009103 0.0010001063 -0.07320385
-0.021363243 0.04111731 -0.00885649 -0.09797293 -0.024176314 -0.0122036785 -0.0072139353 0.012486935
-0.00391306 0.013510004 -0.117345706 0.11839712 -0.02841349 0.033069625 0.03444934 0.10535315
0.014326662 -0.12163086 0.06351447 -0.118790194 -0.025713757 0.034676135 -0.073074654 -0.052131504
-0.007483691 0.0013233125 -0.0021231472 0.068933725 -0.0089982 -0.01434955 0.09091945 -0.10600218
0.097487316 0.0149080455 0.07203618 0.016985029 0.0015998036 -0.04271826 -0.056102276 0.10860889
-0.06407729 0.098492175 -0.0036352277 0.013450131 0.1135723 0.030270055 -0.09932083 -0.05239986
