checkpoint_ddqn.pth (torch_old, 28809 bytes, 7 tensors)

fc1.weight f4 [64, 37]
000000 29 cd 02 be 48 08 1f bd 86 52 3f bd 53 95 76 3c
       -0.12773575 -0.038826257 -0.04670956 0.01505025
000010 c4 81 c3 3c 99 67 1b be f4 d5 18 3e 91 3c 3f 3e
       0.023865588 -0.15176238 0.14925367 0.18675448
000020 1f e3 f0 bd 06 b8 e2 bd 09 d3 ac 3d 24 ea 44 be
       -0.1176207 -0.11070256 0.08438689 -0.19229943
000030 2f 66 ea 3d 0c 1e 20 be 21 56 26 be dc e3 61 3e
       0.11445271 -0.15636462 -0.16243793 0.22059578
000040 bf 9d c7 be 53 73 4f 3d 5f 37 ca bd 99 76 2e be
       -0.38987538 0.05064709 -0.098738424 -0.17037429
000050 21 c3 9a 3c a8 80 e0 bd b5 58 d9 bd 8b 99 e9 be
       0.018891873 -0.10962039 -0.10612623 -0.45624956
000060 e4 1b f8 be 9d 94 c8 bd c8 28 5a be 22 6c 2a be
       -0.4845878 -0.09793971 -0.2130462 -0.16642812
000070 7a 27 8c be ff 4d 95 be cf fb 56 3e bf 94 7d 3d
       -0.27373868 -0.2916107 0.20994495 0.061909433
000080 9e 40 02 bc 57 06 89 bd 5e 18 8d be b6 45 39 be
       -0.007949976 -0.06690662 -0.27557653 -0.18092999
000090 65 35 2d 3d 67 9d 02 3c dd 82 f2 3d 6c f7 e3 3d
       0.04228725 0.007972098 0.118413664 0.11131176
0000a0 ce 35 41 3e af f5 10 3e db b1 fc 3c 5b 02 b8 3d
       0.18868181 0.14156221 0.030846527 0.08984824
0000b0 71 5a 4c 3b 3a ea 2c 3d c1 26 d1 bc 8a 4d 90 bc
       0.0031181837 0.042215563 -0.025531175 -0.017615099
0000c0 c0 38 87 bd a1 d6 ac 3d 22 29 4d 3c 8b b0 c7 3d
       -0.06602621 0.08439375 0.012522014 0.0975047
0000d0 13 27 ca bd e2 65 bf 3c 05 53 72 3b 8b ca c8 3d
       -0.09870734 0.023364011 0.0036975753 0.09804257
0000e0 f4 52 19 3e c6 5d 7b 3d 42 5a 64 3e d7 34 88 3d
       0.1497305 0.061368726 0.22300056 0.066507034
0000f0 dc 36 be bd fc 37 fa be f3 dd 0c 3d 2d a0 da 3d
       -0.09287807 -0.48870838 0.034391355 0.10675082
000100 11 a2 0c 3e 74 85 b3 3d ec 07 d8 3d c2 fe 86 3e
       0.13733698 0.087656885 0.10548386 0.2636624
000110 53 23 31 bf e6 4e 0a be f2 c2 3a be 22 04 b8 bf
       -0.69194525 -0.1350666 -0.18238428 -1.4376261
000120 df af 19 bd 2a a2 da bb 20 e4 3b be 73 ed ee bd
       -0.03752124 -0.0066721635 -0.18348742 -0.116663836
000130 a1 96 22 be 36 70 cf bc da 5e 0b 3e 44 b5 b1 be
       -0.15877773 -0.025322061 0.13610402 -0.34708607
000140 16 ab 12 be eb 91 14 3e f3 56 9c bc 2d e7 43 bf
       -0.14323077 0.14508788 -0.01908443 -0.7652462
000150 66 41 0e 3e bc 7b 00 3c ca 91 5a bc d9 99 e8 be
       0.13892135 0.007842001 -0.013340423 -0.45429876
000160 36 3d e8 be 6b 82 1e be d6 be c9 bd 7f 99 53 3d
       -0.453592 -0.15479438 -0.09850852 0.051660057
000170 5a 6a e3 bd a6 5c 8a 3c 3c e0 8c bd a7 91 70 bc
       -0.11104269 0.016889881 -0.06878707 -0.014683164
000180 c3 61 6c bd 0a 1a af be e1 1b 4a bf 7e a2 8f be
       -0.05771042 -0.34199554 -0.7894879 -0.2805366
000190 81 81 c2 bd 9d 48 4c 3e 93 32 bd bc 2d 24 08 be
       -0.09497357 0.19949575 -0.023095405 -0.1329505
0001a0 2e 45 5a be aa 18 c8 bc 40 cc 11 3e 36 ce f4 be
       -0.21315452 -0.024425823 0.14238071 -0.47813576
0001b0 9a f9 54 bf 89 a7 f7 bd 20 4d b0 3d 73 26 1f 3e
       -0.8319336 -0.12092502 0.086084604 0.15542011
0001c0 2f e0 f2 3d 99 b4 21 be eb 0a b7 bd 56 40 8d 3d
       0.11859166 -0.15791549 -0.08937629 0.06897037
0001d0 d6 f0 6d 3d d1 88 14 be 56 cb 82 3c 84 fb a0 3d
       0.058091007 -0.14505316 0.015966099 0.07860473
0001e0 cf 54 90 3d 23 2d a5 3d 6c fe 59 be ca 9a 19 bc
       0.07047426 0.0806525 -0.2128846 -0.0093752835
0001f0 fd 75 14 3e cf 15 bb be 49 42 ab bd a1 da 4d 3d
       0.14498134 -0.36540076 -0.08362252 0.05025733
000200 8e e5 f8 bd d6 71 dc bc 58 72 4a 3d a0 b5 58 3e
       -0.12153159 -0.02690975 0.049425453 0.21163034
000210 64 c2 4f bd 15 72 6a be 1f e2 41 be ab 83 00 bf
       -0.050722495 -0.22895081 -0.18933915 -0.5020091
000220 15 8c 21 bd 93 a4 6b 3d c8 75 11 bd 0f d2 f0 3d
       -0.039440233 0.057529997 -0.035512716 0.117588155
000230 28 c4 f9 bd be 4c bc 3d 74 d2 9d 3e c0 16 aa be
       -0.12195617 0.09194325 0.30824625 -0.33220482
000240 30 df ea 3d f9 18 c6 bd 0e a8 86 3d 5c 3a 53 bd
       0.11468351 -0.09672732 0.06575023 -0.051569328
000250 dc b5 ad 3d 14 e8 be be 0c 62 43 be 6b bd 5d be
       0.084819525 -0.37286437 -0.1908037 -0.21654288
000260 b4 88 9e be a8 04 2e bf 6e e2 5a 3b 73 fd 69 3d
       -0.3096367 -0.67975855 0.0033399123 0.057126474
000270 0d a8 41 3d 9d f0 32 3e a4 38 26 3d 37 3a 32 3d
       0.047279406 0.17474599 0.04058136 0.04351255
000280 68 d1 44 be 63 06 27 bd c7 7d 1d bc f3 12 27 be
       -0.19220507 -0.040777575 -0.009612507 -0.16315822
000290 55 af 45 be 88 b4 21 3e 7c 3f 2b be 5c de b4 3e
       -0.19305165 0.15791523 -0.16723436 0.35325897
0002a0 41 49 e2 be 4a ea d1 3d e6 5a b2 3c 2b 69 89 3d
       -0.44196513 0.10249765 0.02177186 0.06709512
0002b0 01 65 fe 3d 09 6b b2 3d 94 ca ee bd 6d 5b f9 bd
       0.12421609 0.087118216 -0.116597325 -0.12175641
0002c0 9d 1e 75 bd 0c 59 dc be 89 36 0d 3e 80 6a a1 be
       -0.05984365 -0.43036687 0.13790335 -0.31526566
0002d0 5d 2f 34 3e c7 23 1c be 92 75 cf 3d fc 4b 48 3e
       0.17596193 -0.15248023 0.10129847 0.19560236
0002e0 b9 c7 e4 bc 0e cc 6d be 0b 38 b5 3d e1 ce 22 3e
       -0.027927266 -0.23222372 0.0884858 0.1589923
0002f0 e1 bf df 3d d9 9e 45 3e a2 db 13 3e b2 6b 03 be
       0.1092527 0.19298877 0.14439252 -0.12834051
000300 56 e3 79 be 47 ee 0d be 12 c2 c6 be 2a 6e 33 be
       -0.24403128 -0.13860427 -0.3881994 -0.17522493
000310 25 ef 03 bc 4a bf fd 3d 93 66 e6 bc 71 3f ad bd
       -0.008052622 0.12390001 -0.028125083 -0.08459366
000320 8d 0f c2 be e2 a1 8b 3d 19 d5 00 3e 9a 7a 92 3d
       -0.3790249 0.06817986 0.1258129 0.07152291
000330 c1 f1 95 3e ee ba 6a be 9f f9 c1 3d 41 3a f7 3d
       0.29286006 -0.2292287 0.094714396 0.12071658
000340 5b ea 2c bd f3 39 18 bd d5 f4 10 3e fe 15 d5 bd
       -0.042215686 -0.03716464 0.14155896 -0.10404585
000350 2b 4b 41 be 1a 52 44 bc 9c b1 65 be 8a 2a 0f 3c
       -0.1887633 -0.011982465 -0.22431034 0.008738169
000360 88 5d dc ba de 6e 48 3d 3d 3f 78 3d 37 05 cb 3d
       -0.0016812542 0.048933856 0.060607184 0.09913104
000370 44 98 0f 3c 9d df 26 3c b2 bd 8d bd 04 0a 4e be
       0.00876433 0.0101851495 -0.06920947 -0.20121008
000380 80 b9 08 3c e1 95 65 bd c6 6b 09 3e b8 65 b3 bd
       0.008345008 -0.05605114 0.13420019 -0.08759636
000390 64 da 16 3e 71 67 03 3e 11 58 40 3e 1c 4e b7 be
       0.14731747 0.12832429 0.18783595 -0.3580178
0003a0 03 4b 22 be 5f 04 09 3e fc 2a b8 bc 8c d7 a2 3e
       -0.15848927 0.13380574 -0.022481434 0.31805074
0003b0 91 45 a4 3e 8d 91 c0 bd 56 3d 2a bd 7e 01 23 3e
       0.32084325 -0.094027616 -0.0415624 0.15918538
0003c0 84 51 37 be ad 7d d2 bc c0 a5 cf bd 5a 68 37 3e
       -0.1790219 -0.025694693 -0.10139036 0.179109
0003d0 e7 53 19 be 6a 62 bb 3d 8f dc 0f 3e 85 14 ad be
       -0.14973412 0.0914963 0.1404898 -0.33804718
0003e0 7b d9 3c bc 36 df ac 3d 93 cd e3 bd 66 c8 4e be
       -0.011526461 0.084410116 -0.111231945 -0.20193633
0003f0 0b 65 f2 bd 07 90 30 3e e4 04 2d bb 56 5b 38 3d
       -0.11835679 0.17242442 -0.002640062 0.04500898

fc1.bias f4 [64]
000000 04 1a 37 bd 04 00 9e 3d a2 69 2c be 6c 15 45 bd
       -0.044702545 0.07714847 -0.1683717 -0.048116133
000010 8d d4 00 be ea 28 88 3d 03 fb 97 bc 38 8c b2 3a
       -0.12581082 0.06648429 -0.018552309 0.0013622111
000020 2d 14 80 3d 0a 3d 03 3e 0a ab 4c be 9f c8 98 bc
       0.06253848 0.12816253 -0.19987121 -0.018650351
000030 37 b7 b9 3d 6a b8 a1 bd 40 60 21 be df eb 18 3e
       0.090681486 -0.07896502 -0.15759373 0.14933728
000040 88 10 2d be 2f 8f 7c 3d 2e f9 fa 3c df 17 ff 3d
       -0.16900837 0.061659988 0.030636396 0.12455725
000050 04 ca 85 bc 72 40 c3 3c a7 5f 27 bc fe 84 15 be
       -0.01633168 0.02383444 -0.010215676 -0.14601514
000060 68 d3 bc bd 84 3b bb bd 60 26 5a bd 5a 69 93 bc
       -0.0922001 -0.09142211 -0.053259254 -0.017994571
000070 04 18 e4 bd 88 89 3e 3d 24 9e 49 be 8f f7 c1 bd
       -0.11137393 0.04651788 -0.19689232 -0.09471046
000080 37 c6 a4 bd cf 93 44 be 55 b6 58 3e 1b 5e c3 bd
       -0.08045619 -0.1919701 0.21163304 -0.095394336
000090 b5 cd 2e 3d bb 19 7f bd d6 03 b0 3c ba e3 5b bc
       0.042676646 -0.062280398 0.021486204 -0.013420993
0000a0 8f bd 54 be 07 5f 47 3d 93 47 0f be 2c 16 7a 3d
       -0.20775436 0.04867461 -0.13992147 0.0610563
0000b0 7f 39 bc 3d db 8b cc bd 5c 8f 13 be 3e e4 71 3d
       0.09190654 -0.09987613 -0.14410156 0.05905556
0000c0 19 46 b0 3d 6a a6 e5 bb cd b6 0b 3e 87 48 7d bd
       0.0860712 -0.0070083635 0.13643952 -0.061836746
0000d0 a9 af 05 be bf 3d 10 3e 14 61 fd 3d 5d 68 58 bc
       -0.1305529 0.14086054 0.12372032 -0.013208476
0000e0 7a 81 88 bd 57 3f f4 bd 0e 7c 0a be a1 07 64 3d
       -0.06665321 -0.119261436 -0.13523886 0.055671338
0000f0 cb ee 23 3e 66 34 1b 3e 5c 50 57 3a 97 55 11 3d
       0.16009061 0.15156707 0.00082135736 0.035482015

fc2.weight f4 [64, 64]
000000 dc bc 37 3d 1b 55 e3 bd 03 74 64 3e e6 2a f0 bd
       0.044857845 -0.11100217 0.2230988 -0.11726932
000010 a6 02 8c 3e 3b 44 b0 3d 0f 7c 87 bd 49 0f 06 be
       0.2734577 0.08606764 -0.06615459 -0.13091768
000020 eb 0d c4 bd 3f f1 67 bd 2c b3 09 bd 7f bb 1c 3e
       -0.09572967 -0.056626555 -0.033618137 0.15305899
000030 c4 af 38 3c dc 59 1b 3d 37 4a 66 bd ce 19 20 be
       0.011272375 0.037927493 -0.05622312 -0.15634844
000040 9f 46 25 3e 2a 01 2c bd 72 4d b0 bd 03 33 06 bf
       0.16140221 -0.041993298 -0.086085215 -0.5242159
000050 33 ce 1f 3d cb b4 05 bd d6 cc 57 be 98 d7 ab bd
       0.039015006 -0.03264312 -0.21074232 -0.083907306
000060 1a 9d 07 3e bb 90 0b be 53 a4 13 3d 69 82 7a bc
       0.13243523 -0.13629429 0.036045384 -0.015289881
000070 97 f7 84 3d 3e 45 c9 3e 37 c4 1c bd 57 20 85 bc
       0.064925365 0.3931064 -0.038273063 -0.016250772
000080 b5 fc b6 3d da 9b 7d 3d 8a 9f a4 bd 79 3d cd bd
       0.08934919 0.06191621 -0.08038242 -0.100214906
000090 a7 ba 3a 3d 2c ca df 3c 82 b2 e0 3c 85 e7 0d be
       0.04558816 0.027318083 0.02742887 -0.13857849
0000a0 8a f2 1f 3c 31 7d 52 3e c5 1e 91 3d b8 0e 97 3d
       0.009762416 0.20555569 0.07085947 0.07375854
0000b0 0f c6 13 bc d0 ba b9 bd df e7 08 3c 93 06 af 3b
       -0.009019389 -0.09068835 0.008356064 0.00534136
0000c0 19 3d c4 3e ab e1 2d be de d5 96 3c c9 2c 81 bd
       0.38327864 -0.16980617 0.018412527 -0.0630737
0000d0 bc e6 93 bd 98 33 bd bc 4c f8 da 3e e5 4d 34 3e
       -0.072217435 -0.02309589 0.4276756 0.1760784
0000e0 93 f4 0d bd 70 2f 8e bd 4c c9 f5 3b 3b 04 03 bd
       -0.034657072 -0.06942642 0.007500803 -0.031986456
0000f0 36 51 10 be 03 ba 50 3d 12 f2 46 be fa 2d 06 be
       -0.1409348 0.050958645 -0.1942828 -0.13103476
000100 27 5c 1b 3e 9c a1 cd 3d 4a 26 80 3d 3b 86 02 be
       0.15171872 0.1004059 0.06257303 -0.12746517
000110 8f 35 0c bd 55 a3 e1 3d cf db cb bd 70 5e 28 bc
       -0.034230765 0.11017481 -0.099540345 -0.010276422
000120 75 6d da bd 6b 40 90 3e 4d f4 2d 3e d0 d0 fe bd
       -0.106654085 0.28174147 0.16987725 -0.124421716
000130 68 9c 11 bd 3f bf 0c be 83 27 83 39 4d 91 bb bd
       -0.03554955 -0.1374483 0.00025015706 -0.09158573
000140 af 52 a2 3d 61 69 62 ba 2b 89 ac bc d6 4a 14 bc
       0.07925927 -0.00086369185 -0.0210615 -0.009051045
000150 24 c0 a5 bc 74 e5 25 be e4 68 d3 3c 79 7d 91 be
       -0.020233221 -0.1620081 0.025806852 -0.2841604
000160 b4 5e 1e be f0 80 4c 3e 9c 2b e2 3c 78 38 e7 3d
       -0.15465814 0.19971061 0.027608685 0.112900674
000170 b1 5a 0a be da fb 42 3d d5 07 24 be 0a 91 a3 3b
       -0.13511159 0.047603466 -0.16018613 0.0049916552
000180 6e 04 a8 3e 65 00 6a 3c 3a 9c 88 3d ce ad c3 bd
       0.3281588 0.014282321 0.06670423 -0.09554635
000190 dc 4d 34 3b 2c d6 15 be e7 6f 76 3d ef f2 52 bd
       0.0027512228 -0.14632481 0.060165312 -0.05150121
0001a0 85 04 6b 3e d9 e7 e7 3d de 21 6d 3d 06 f3 9b 3d
       0.22950943 0.11323518 0.057893626 0.076147124
0001b0 cf ce dc bd 6a a7 25 3d cd 59 2d bd 4e 3b da bc
       -0.10781633 0.04044286 -0.04232197 -0.026639607
0001c0 08 b6 96 bd 3f e7 48 3e b8 4a 54 bd 03 04 ee bd
       -0.073589385 0.19619463 -0.05182907 -0.11621859
0001d0 a1 f5 2e be 1f 84 3e 3e 8f 42 17 be 2c f3 82 be
       -0.17085887 0.18605088 -0.14771484 -0.2557615
0001e0 83 93 4f be 5d a5 02 be 5e 2d d3 3d 75 25 17 bc
       -0.20271115 -0.12758394 0.103113875 -0.009225239
0001f0 87 bd 96 3e 8f dd f4 3d 77 a9 8c 3d 8a 8e 93 bd
       0.29441473 0.119563214 0.0686826 -0.072049215
000200 74 5a df 3b 33 b2 33 3d 9d bd c4 bb d5 66 8c be
       0.006816203 0.043871116 -0.006004049 -0.27422205
000210 d7 82 27 3e 63 14 0f bf 18 df 11 be 3e cc 2f bd
       0.16358505 -0.5589048 -0.1424526 -0.04291939
000220 01 c8 57 3d 55 b9 1d 3e df 70 89 be 85 a4 e4 bd
       0.052680973 0.1540273 -0.26843926 -0.11164192
000230 63 8b 82 3b 3a e0 fc bd 8f ff ff bd 2d c8 54 be
       0.0039839013 -0.12347455 -0.12499916 -0.20779486
000240 2c 3c d7 be 65 bf d5 3d 60 06 8c bd 06 ff 4b be
       -0.42038095 0.10436896 -0.068371534 -0.19921502
000250 7a 22 3c 3e 4f 4e 22 be be 99 d2 3d 1e 92 c9 bd
       0.18372527 -0.15850185 0.1028323 -0.09842323
000260 ed ff 9c 3d 07 4a 87 3c 68 85 13 3c 32 fe 89 3e
       0.076660015 0.016514791 0.0090039745 0.26951748
000270 41 25 43 3c 29 d4 22 3e a0 8f 8f bd 12 07 70 be
       0.0119107375 0.15901245 -0.07009816 -0.23440197
000280 df 10 2b 3e 98 af 7a bd 2c 8f 1d be e4 d9 1d 3e
       0.16705655 -0.061202615 -0.15386647 0.1541515
000290 1f 39 0d be f0 cb 6b be b8 88 cb bd 17 fb 56 3d
       -0.13791321 -0.23027015 -0.099381864 0.05248555
0002a0 10 83 24 be 6e 20 84 3c f7 2e d5 3d 3d 5f 9c 3d
       -0.16065621 0.016128745 0.104093485 0.07635353
0002b0 99 75 b8 bd 84 b1 c8 3e 16 71 93 bd f0 0b ab b8
       -0.09006805 0.39197934 -0.07199304 -8.156139e-05
0002c0 18 ae c4 3d 81 38 09 be ac 33 85 be 83 e8 34 bd
       0.09603518 -0.13400461 -0.26015985 -0.044167053
0002d0 52 c5 1d 3d 7b 0a 71 3e eb cd 4c 3e 84 7b 1e 3e
       0.038518257 0.23539154 0.20000426 0.15476805
0002e0 0a 71 ae bd 0e 72 41 3d 29 7d 87 bc b9 b3 a0 bd
       -0.08517654 0.04722791 -0.016539173 -0.078467794
0002f0 ff 8c 95 be 84 95 88 bd 9f 85 ae be b0 88 65 3e
       -0.29209134 -0.06669143 -0.3408632 0.22415423
000300 e9 fe dd 3d 7d 2d 50 be 0a 6d 4a 3d df b4 10 bd
       0.10839636 -0.20329852 0.049420394 -0.035328742
000310 89 5a 00 bf 98 b3 c3 bc 25 82 bc bd cc 45 42 3d
       -0.50138146 -0.023889348 -0.092045106 0.047429845
000320 61 44 4a bd df 33 e6 3d 86 25 f9 3d 64 ce 12 be
       -0.049381617 0.112403624 0.1216536 -0.14336544
000330 a2 f5 03 bc 6a df 12 3e f2 cf 86 3e 23 1f 3b 3d
       -0.008054169 0.14343038 0.26330525 0.04568399
000340 9a b4 5c 3d 14 92 40 be f3 79 f5 bc d4 0c 7b bc
       0.053883173 -0.18805724 -0.029965376 -0.015322883
000350 0c 6f 72 bd 76 b6 c3 bc f7 61 cc 3c f9 70 2b 3e
       -0.059187934 -0.023890715 0.024949057 0.16742314
000360 d7 25 10 be e8 ef 5e be 6e 1d 0c 3e 29 e7 9d 3d
       -0.14076935 -0.21771204 0.13683102 0.07710106
000370 a1 ae ed bd 1d 55 3a 3e d1 a3 a0 bd df 27 d7 3c
       -0.116055734 0.1819653 -0.078437455 0.02626413
000380 88 05 ce 3c dc ff 17 3e af b6 5a 3d 38 94 b5 bc
       0.025149122 0.14843696 0.053396877 -0.022165403
000390 22 ba a0 bc 52 39 16 3d 5b 43 de 3b d2 63 83 3d
       -0.019620005 0.03667576 0.0067829317 0.064155236
0003a0 e9 64 95 3e 6a 51 94 bc 4c d8 97 3c 4d 14 2f bd
       0.2917855 -0.018105228 0.018535756 -0.04274397
0003b0 7a c7 5c 3d 9b d5 85 be 80 e5 10 be a8 ee 3a 3d
       0.053901173 -0.2613953 -0.14150047 0.045637757
0003c0 b6 22 3e 3e 73 89 dc bb 95 93 32 bc d7 1a aa bd
       0.18567929 -0.0067302524 -0.010899444 -0.083059005
0003d0 ac 19 e9 bd 09 03 38 3c 19 7e a2 3d 8e b5 dd 3d
       -0.1138185 0.011231192 0.079342075 0.108256444
0003e0 e1 79 d4 3d 3a 9a f1 bd e8 38 85 be a5 57 79 3d
       0.10374809 -0.117969945 -0.2601998 0.0608746
0003f0 e7 6d 06 3d e2 f4 3b 3e 9d ef 74 be cc 4e 69 bd
       0.032819655 0.18355134 -0.2391953 -0.056959912

fc2.bias f4 [64]
000000 74 a4 52 3d 15 d7 1d be 97 a5 d1 3c f0 03 72 bd
       0.051426366 -0.15414079 0.025591655 -0.059085786
000010 c4 ce 51 3c a7 6c 2c bd bb 90 2c 3e 78 0b 8c bc
       0.012805644 -0.042095806 0.16852085 -0.017095312
000020 2e 76 ef bd b1 52 95 bd 0b fe b1 3d 69 43 b0 bc
       -0.11692463 -0.07291163 0.08691033 -0.021516519
000030 27 60 75 bd 58 1a 75 3c 9a 83 a0 bc cf 6d 21 be
       -0.05990615 0.014959894 -0.019594003 -0.15764545
000040 f5 d2 ac bc 18 2c 1b be cc 81 87 3e 3d 13 32 3d
       -0.021096686 -0.15153539 0.26466215 0.04347538
000050 36 8d 49 bd 08 5e 0f 3d 66 a5 d4 bc 23 48 ff 3c
       -0.049206935 0.035001785 -0.025957774 0.031162327
000060 82 df dc 3c 2e bf e8 bc 87 9b 85 bd f8 c2 13 be
       0.026962046 -0.028411474 -0.06523805 -0.14429843
000070 4c 90 c7 bd 6f e5 4b bd 19 78 4c 3e 8e 0b cc 3c
       -0.09744319 -0.04977935 0.19967689 0.024907853
000080 3c c0 f1 bd 6b 63 21 be f2 c6 93 bc 2f a5 57 3c
       -0.11804244 -0.15760581 -0.0180392 0.013161941
000090 e4 97 40 bd 92 b1 80 3d 7d 11 db 3c 51 5d c7 bd
       -0.047019854 0.06283869 0.026741737 -0.097345956
0000a0 4a 7b ba bd 9e 2b 11 3e 13 51 06 bd a7 24 0e 3e
       -0.09105547 0.14176795 -0.032792162 0.1388117
0000b0 0e 4a e3 bd 66 88 0d 3d 3b ca 7c 3e 0b c5 1f be
       -0.11098109 0.034553908 0.2468652 -0.1560251
0000c0 6e e6 cc 3a 80 27 40 bd 27 76 08 bc d4 c2 e3 bd
       0.0015632638 -0.04691267 -0.008328951 -0.11121145
0000d0 86 6f 85 bd b2 8d 04 be 33 8f 5f bd 30 30 ca 3d
       -0.06515412 -0.12944677 -0.054579925 0.09872472
0000e0 14 0b 2c be 81 f6 2f 3d aa 99 3a bc 5f c9 bf bc
       -0.16801101 0.042959694 -0.011389175 -0.02341145
0000f0 90 dc b8 3d 1c 77 03 be 6d b0 e8 ba 94 93 cc 3d
       0.09026444 -0.12838405 -0.0017752774 0.09989086

fc3.weight f4 [4, 64]
000000 36 fb 6c 3e bd 55 01 be 22 9b 01 be 4e 03 71 3b
       0.23142704 -0.12630363 -0.12656835 0.0036775651
000010 4f 19 b6 bd 03 cd 7b be 19 37 e4 3b ad 0a 44 3e
       -0.08891546 -0.24589925 0.006964576 0.19144697
000020 6b 17 44 bd f7 75 a2 3d ae d3 68 3e 7f 40 9d 3e
       -0.047873896 0.07932656 0.22737 0.3071327
000030 a2 f6 68 3e 84 00 59 be 58 f7 1f 3c 9d 00 8d be
       0.22750333 -0.21191603 0.009763561 -0.2753953
000040 98 dd d6 bc c7 f0 0b 3e 1d 3f 2c 3e da e8 09 3e
       -0.026228711 0.13666068 0.16820951 0.13467732
000050 af 7a d6 3d 45 a8 3c bc 8b fa c9 bd e1 ae 4a be
       0.10472619 -0.011514728 -0.098622404 -0.19793274
000060 0b c0 ac bd e5 23 a2 bd 2f 9c 7c bc 26 e6 df 3c
       -0.08435067 -0.079170026 -0.015418096 0.027331423
000070 1e 11 32 3e 4e 89 87 3e fa 03 be 3d ca d1 71 3e
       0.17389342 0.26471943 0.09278102 0.23615184
000080 7d 99 b0 3b f5 79 00 3f 77 9d 0e be c2 02 41 3d
       0.005389391 0.5018609 -0.13927256 0.04712177
000090 f5 c0 84 bc 26 d9 86 3d 34 34 0e bf 96 95 89 be
       -0.01620529 0.065843865 -0.55548406 -0.26871938
0000a0 25 ae 84 be 47 20 38 bd ac be ca be a6 e2 a5 3e
       -0.25914112 -0.044952657 -0.39598596 0.32399482
0000b0 39 3f 18 be 44 4d 6e 3d 1f cf f8 3d 39 6b 9c be
       -0.14867868 0.058179155 0.1214888 -0.30550554
0000c0 7a 06 43 3d 99 37 b6 bd d8 87 56 3e 83 4a 8e 3c
       0.0476136 -0.08897323 0.20950258 0.017369514
0000d0 43 94 22 be b4 0b d2 3e a3 ae bf 3d d6 a3 69 be
       -0.1587687 0.41024554 0.09359481 -0.22816405
0000e0 62 d1 ad be 3f 4f 29 3e ff 9e e0 3d d0 58 11 bd
       -0.3394881 0.16534136 0.10967826 -0.03548509
0000f0 18 a0 00 3e b3 7e d4 3d 11 3f 0c be 07 86 b0 3d
       0.12561071 0.103757285 -0.13695933 0.08619314
000100 4c e8 65 3e 4d c8 8c 3e 4a d0 8a 3e 22 e6 3e be
       0.22451895 0.27496567 0.27112037 -0.18642476
000110 7c a3 f4 bd 47 bc 1f be 99 67 0b 3c 1b 7b 3a bd
       -0.11945245 -0.15599166 0.008508586 -0.04552756
000120 25 01 39 bd be fd 06 bd 1b c8 2a 3e 13 ab 88 bd
       -0.045167107 -0.03295683 0.16677897 -0.06673255
000130 80 b0 bd 3e a1 72 f8 3c 7b ff ba 3d 76 82 1f be
       0.3704872 0.030328097 0.0913076 -0.1557711
000140 7a 19 00 3d b6 df ad 3e f8 0f e8 3d 0a 4c 12 3e
       0.031274296 0.3395974 0.11331171 0.14286819
000150 0e 72 d4 3d 6c 6d b3 3b 73 68 18 3e f4 ae ed bc
       0.10373317 0.0054756906 0.14883594 -0.029014088
000160 56 17 77 3d 0b 9b 8c 3e bc c7 65 3d 47 0f e6 3d
       0.06032499 0.27462038 0.056098685 0.11233383
000170 10 b4 ba 3d 90 a3 27 3e 4b 4c 89 3d 8d d1 e7 bd
       0.091163754 0.16370988 0.06704005 -0.113192655
000180 03 1f 1a 3d 10 9b e9 be 74 d3 f3 3d e9 ea 27 bd
       0.03762723 -0.45626116 0.11905566 -0.040995512
000190 65 47 33 be fb 60 cd 3d 4d 58 e3 3e b6 f4 c7 3c
       -0.17507704 0.10028263 0.44403306 0.02440868
0001a0 59 f3 32 3e 3d 1b d7 3d f4 cb c6 3e 7d 92 02 3e
       0.17475642 0.10503242 0.3882748 0.12751193
0001b0 e7 c6 ea 3e f2 f9 1e bd 5d 2b 98 3d 33 75 7d be
       0.45854875 -0.038812585 0.07430146 -0.24751739
0001c0 e7 7a ae 3d d2 c0 c7 3d 2f 2e 3b 3e b3 3e 24 be
       0.085195355 0.097535744 0.18279336 -0.16039543
0001d0 b0 56 a2 3e 08 d3 ad bd c7 ce b3 bc 5f fd a6 3d
       0.31706762 -0.08487517 -0.021949185 0.081537955
0001e0 2c 23 2b bd 82 d7 24 3e b9 24 7f be 42 df 95 3d
       -0.04178159 0.16097835 -0.24916352 0.07317974
0001f0 79 af 22 3d c8 62 d9 bd 63 0d f7 ba 78 ac 9a 3d
       0.039718125 -0.10614544 -0.0018848594 0.07552427
000200 86 65 22 be fb 8b 5c 3d 7f d2 8a 3e 0f b3 90 3c
       -0.1585904 0.053844433 0.2711372 0.017663507
000210 d0 e2 b6 3e 78 27 ce 3c 90 f3 87 3d f5 04 54 bc
       0.3571992 0.025165305 0.06638253 -0.012940635
000220 04 3e cf 3d f1 1f 9b 3b 4f 08 2e be 10 62 2f 3e
       0.101192504 0.0047340323 -0.16995357 0.17127252
000230 3e f2 88 3e 35 c8 c7 3e fc 7f e7 bc 4b c2 cb bc
       0.26747316 0.39019933 -0.02825927 -0.02487292
000240 ce 69 7f 3e 0e fb b1 3c 46 c3 c5 3d 5a f8 86 be
       0.24942705 0.021726158 0.09656386 -0.26361352
000250 63 23 ce bd 93 5f 3b bc 79 65 08 be da 9c 30 be
       -0.10065343 -0.011436361 -0.13319959 -0.17247334
000260 df f7 89 3e 3e 6b 43 3e 83 d8 07 3e 4b 34 00 be
       0.26946923 0.19083878 0.13266186 -0.12519948
000270 44 02 b3 3e 61 74 a1 bd 50 c3 c2 bd 14 de 4b 3d
       0.34962666 -0.07883526 -0.09509909 0.049772337
000280 91 52 9e be 01 8c ca 3d 93 d5 99 3e b5 b8 c7 3c
       -0.30922368 0.09889985 0.30045757 0.024380067
000290 0f f7 bb 3c 26 ff 9c 3e d1 e2 b4 bc 74 d7 44 bd
       0.022944955 0.30663413 -0.02208081 -0.048057035
0002a0 d6 2e 42 3e 93 5c f7 bc f1 e5 8c be 06 45 ee 3b
       0.18963179 -0.03019551 -0.2751918 0.007271412
0002b0 16 cf 1a be 01 f5 7d bd 87 b6 cb 3d ef 12 d6 3d
       -0.1511806 -0.062001232 0.09946924 0.1045283
0002c0 47 9c 48 bd 55 0d 2a 3e b8 bb a5 3e 71 91 7f 3e
       -0.048977163 0.16606648 0.3236978 0.24957825
0002d0 04 2b 56 3e 09 06 f5 3c 52 db af 3c 6e 4f 5d 3e
       0.20914847 0.029910104 0.021466885 0.21612331
0002e0 39 46 a8 bd 25 3b 11 3c 8e b0 76 3e 7f 6d e1 be
       -0.08216519 0.008864199 0.24090788 -0.4402885
0002f0 1e 56 9e 3c bf 06 c6 bc 55 39 b9 bd 5b 70 b2 bd
       0.019328173 -0.024173139 -0.09044138 -0.08712836
000300 cd a0 6e 3e 6d f1 99 3d 90 2f d9 be 86 6f 2a 3e
       0.23303528 0.075167514 -0.424191 0.16644105
000310 f2 cd ed bc 18 33 28 3e 27 85 94 3d e6 c6 b2 3d
       -0.029028866 0.1642574 0.07251959 0.08729343
000320 06 1d 95 be d9 cb 8c be 30 1c 94 3d d6 b3 e5 3c
       -0.29123706 -0.27499273 0.07231939 0.028039854
000330 b5 a8 fc be fb 96 33 3d 8e aa a9 3e 41 65 96 3d
       -0.49347463 0.043845158 0.33137935 0.073435314
000340 1f 16 20 be 8b 77 87 be 85 cb 98 3d f2 bc 8b bd
       -0.15633439 -0.26458392 0.07460693 -0.06823148
000350 4c 7a 43 3e 31 ee 28 3e 2a 16 9a 3e cf e1 35 bd
       0.19089621 0.16497113 0.30095035 -0.0444048
000360 9e a7 83 be c8 f4 f3 be 03 20 9a 3e 59 70 a4 be
       -0.2571382 -0.4764769 0.30102548 -0.32116964
000370 9d 48 8d be 71 ff c6 bd 7b 31 67 bd 84 ad 29 3e
       -0.27594462 -0.0971669 -0.056443673 0.16570097
000380 4a c5 29 be 54 ca 96 be cd 9c 7e 3e 9a c1 eb 3c
       -0.16579166 -0.2945124 0.24864502 0.02877884
000390 2c 85 20 3d df 78 f1 3b 5c 4b 5a 3d 58 44 1d 3d
       0.039189503 0.0073691453 0.053294525 0.038395256
0003a0 1d af 68 3c 35 28 30 3e 85 26 02 be 6e bf 02 be
       0.0142019065 0.17202838 -0.12710007 -0.12768337
0003b0 1e ce 72 3d a9 1c f9 be 5a 7a 5b 3d b0 ad 43 be
       0.0592786 -0.48654678 0.05358348 -0.19109225
0003c0 c0 94 01 bd d4 79 10 3e d9 f1 85 be 4a 64 c5 bd
       -0.031636 0.14108974 -0.26161078 -0.09638269
0003d0 3f 99 27 bd 89 c9 fb be 1e 27 3f be 4a 14 b3 bd
       -0.04091763 -0.49177197 -0.18667266 -0.08744104
0003e0 02 59 01 be 1f c2 17 3e 21 fb bd 3d 5e 02 bd 3e
       -0.1263161 0.14820145 0.09276415 0.3691587
0003f0 60 96 a1 3d 5a 69 d4 bd d4 2d 53 bd e6 3b 99 bd
       0.0789001 -0.10371657 -0.051557377 -0.07482128

fc3.bias f4 [4]
000000 58 3b 18 3e 82 47 12 3e 0a 07 51 3e f1 e9 3c 3e
       0.14866388 0.1428509 0.20412841 0.18448617

a_state.weight f4 [1, 64]
000000 4e 3c 4f 3e ff 2b c1 3d 78 c1 9f bd 1c 47 39 bd
       0.20237848 0.0943222 -0.07800573 -0.04523383
000010 a7 e6 09 3e 7a c9 d4 3b a7 57 0a 3e 8e c5 60 3d
       0.13466893 0.0064937444 0.13509999 0.054875903
000020 24 20 23 be 94 9f c2 bb b1 44 12 3e 80 6a ac 3e
       -0.1593023 -0.0059394334 0.14284016 0.33675003
000030 e8 a7 47 be 3b 3d a5 3d 0c 77 47 3e bc 19 a8 be
       -0.19497645 0.080683194 0.19479007 -0.32832134
000040 ee 19 d8 3d c1 72 08 3d 0f 78 94 3d 04 00 96 bd
       0.10551821 0.033312563 0.07249462 -0.07324222
000050 fd c3 88 3d ee a1 8f 3d 28 53 b2 3d 46 11 5d be
       0.06678007 0.070133075 0.08707267 -0.2158862
000060 0e ec 9e 3c 0a f7 84 3d e2 0d e3 3d e0 17 b1 3c
       0.019399669 0.064924315 0.11086632 0.02161783
000070 d0 9f cf bd 30 e2 fa 3d e2 d1 18 3d 4d 6c 89 3e
       -0.10137904 0.12250173 0.037309535 0.2684044
000080 47 64 29 be b3 67 e7 be 74 b1 b2 3e f2 d0 1f be
       -0.16542159 -0.45196304 0.3490101 -0.1560705
000090 d5 ac 45 3d b8 e8 71 3e 9e 9d 6d be 22 dc 1a be
       0.04826053 0.23623931 -0.23204657 -0.15123037
0000a0 de 04 84 3d 4e 83 9b 3d 73 79 a5 be 28 b4 6d 3e
       0.06446241 0.07593404 -0.3231922 0.23213255
0000b0 ee e5 3a 3e 5c f5 7f be c1 a8 20 3e e0 db 02 bf
       0.18251774 -0.24995941 0.15689375 -0.5111675
0000c0 da 54 0a 3e 74 f5 9c 3d 3f 37 88 3e e5 e8 a7 bc
       0.13508931 0.07664004 0.2660465 -0.020496795
0000d0 8a 30 42 3e ce 73 c7 be a3 b0 ff bd b8 3d 34 3e
       0.18963829 -0.3895554 -0.12484863 0.17601669
0000e0 09 ed bd be 77 ab 60 3e b4 31 c4 bd 49 da 78 3d
       -0.37094906 0.21940409 -0.095797926 0.060755048
0000f0 40 0d 18 3e da 7b 3b 3d 99 6d 02 be 79 cb 93 3c
       0.14848804 0.04577241 -0.1273712 0.01804136
